models/deep_long.pth (torch, 478483 bytes, 44 tensors)

f.V.0.weight f4 [128, 2]
0	0xbde884ff	-0.11353492
1	0x3e812e28	0.25230527
2	0x3e5785a0	0.21047068
3	0x3e491580	0.19637108
4	0xbf190b79	-0.5978313
5	0xbecce5b7	-0.4001901
6	0xbef3b151	-0.4759622
7	0xbe4d2e83	-0.20037274
8	0xbf117e0d	-0.56832963
9	0x3f194211	0.59866434
10	0xbe827ada	-0.25484353
11	0x3f015774	0.5052407
12	0x3eba111d	0.3634118
13	0xbeab090a	-0.33405334
14	0xbf1bb43b	-0.60821885
15	0x3f065ee4	0.5248854
16	0xbf1e1fab	-0.6176707
17	0x3ef24cee	0.47324318
18	0xbe08df2c	-0.13366383
19	0x3e68420c	0.22681445
20	0xbc0619cc	-0.008184861
21	0xbf2d5423	-0.6770651
22	0xbec4af69	-0.38415077
23	0xbefab0e6	-0.48963088
24	0xbe3a2185	-0.18176849
25	0x3f03c2f0	0.51469326
26	0x3f038769	0.51378495
27	0x3ccab2fd	0.024743551
28	0x3f0c55e2	0.54818547
29	0x3f104548	0.56355715
30	0x3f1d8716	0.6153425
31	0xbdbc20d3	-0.09185948
32	0xbf191f8c	-0.5981376
33	0xbf0fe2a7	-0.5620522
34	0xbefb76cb	-0.4911407
35	0x3f22ce91	0.63596445
36	0xbf0c4bae	-0.5480298
37	0xbf07954f	-0.529622
38	0x3dd897b0	0.10575807
39	0xbf16076a	-0.5860506
40	0x3e867207	0.2625887
41	0xbd986293	-0.074406765
42	0xbeb3978d	-0.35076562
43	0xbf12203b	-0.5708043
44	0x3e20c57c	0.15700334
45	0xbf186ae8	-0.59538126
46	0x3e7c55eb	0.2464215
47	0x3ed31e5f	0.4123411
48	0x3f119faf	0.5688428
49	0xbe8cd8af	-0.27509066
50	0xbeaeb640	-0.3412342
51	0xbf08fd78	-0.5351176
52	0x3ebc7d8b	0.36814532
53	0x3e8370df	0.2567205
54	0xbf09fb8d	-0.5389946
55	0xbdf2338c	-0.11826238
56	0xbe883d94	-0.2660948
57	0x3eab235f	0.33425424
58	0x3e944c47	0.28964445
59	0x3e24a8f3	0.16080074
60	0x3ebfd05a	0.37463647
61	0xbde53e78	-0.111935556
62	0x3f02bf7f	0.5107345
63	0xbe7251e8	-0.23664057
64	0xbec8dcf0	-0.39231062
65	0xbe6f3245	-0.2335902
66	0x3e107038	0.14105308
67	0x3e9e7f92	0.30956703
68	0xbee95a08	-0.455765
69	0x3c88bc39	0.016691314
70	0xbe9534bb	-0.29141793
71	0x3f00dfb2	0.5034133
72	0x3f0608ce	0.52357185
73	0x3e5e2821	0.21694995
74	0x3f127011	0.5720225
75	0xbf4916eb	-0.78550595
76	0x3ec02337	0.37526867
77	0xbe970a9a	-0.29500276
78	0xbf0e5fd1	-0.55614954
79	0xbea7988f	-0.3273358
80	0x3f2cc3a2	0.6748601
81	0x3f2f2872	0.6842109
82	0x3e8e196e	0.27753776
83	0xbe950d20	-0.29111576
84	0xbe8b9d73	-0.27268562
85	0x3f01c8f8	0.5069728
86	0xbe03a367	-0.12855302
87	0xbef87610	-0.48527575
88	0x3ede0406	0.43362445
89	0x3f26bdb4	0.65133214
90	0x3ede2d43	0.43393907
91	0x3f1c16c4	0.6097224
92	0x3d1ace6f	0.037794527
93	0x3e3ad4fb	0.18245308
94	0x3d34621e	0.044038884
95	0xbd3230d7	-0.04350361
96	0xbe2aa443	-0.16664223
97	0x3ccf7137	0.02532254
98	0x3eed5cf6	0.46359986
99	0xbf0548f6	-0.52064455
100	0x3db5ed38	0.088831365
101	0x3e584d50	0.21123242
102	0xbcde8801	-0.027164461
103	0xbdfc5804	-0.12321475
104	0xbec3effd	-0.38269034
105	0xbd9efe4b	-0.07763346
106	0xbeacee6d	-0.33775654
107	0x3f0de57e	0.554283
108	0x3ea6c206	0.32569903
109	0xbc4838f3	-0.012220609
110	0xbe58aff4	-0.21160871
111	0x3ec17062	0.37781054
112	0x3f2464b8	0.64216185
113	0x3ec03620	0.37541294
114	0xbf1eacce	-0.6198243
115	0xbe457d20	-0.19286013
116	0xbe9e8277	-0.30958912
117	0xbee1fe45	-0.44139305
118	0xbf03fdfc	-0.51559424
119	0x3d81b998	0.06334227
120	0xbd998072	-0.07495202
121	0x3e8e22a1	0.27760795
122	0x3f20a6c7	0.6275448
123	0xbe6b6d37	-0.22990881
124	0x3f15a061	0.58447844
125	0xbef1379d	-0.47112742
126	0x3ed6ed63	0.41977987
127	0xbe972e52	-0.29527527
128	0xbe824c86	-0.25449008
129	0xbdf934a0	-0.121682405
130	0x3ebe4776	0.37163895
131	0xbbc46800	-0.005993843
132	0x3f2760b3	0.65381926
133	0x3e7474ff	0.23872755
134	0xbee6b0b3	-0.45056686
135	0x3e59f7ee	0.21285984
136	0x3e2285e1	0.15871383
137	0x3f130a46	0.5743755
138	0x3e820736	0.25396127
139	0xbe8d5d44	-0.2761022
140	0xbf00e7ca	-0.5035368
141	0x3e8bb50e	0.2728657
142	0xbf16c3d6	-0.5889257
143	0x3ebfa13c	0.374277
144	0xbf2240ad	-0.6337994
145	0xbea1f325	-0.31630817
146	0x3e85ab81	0.2610741
147	0xbf2a68cd	-0.66566163
148	0x3f10da63	0.5658323
149	0x3e39afc2	0.18133453
150	0x3e97b8f0	0.29633284
151	0xbf1c32a1	-0.61014754
152	0xbe6883f2	-0.22706583
153	0x3f130636	0.5743135
154	0xbf395877	-0.7240061
155	0x3f1d0a26	0.6134361
156	0xbe552d0a	-0.20817962
157	0xbe71bf50	-0.23608136
158	0xbdcb19da	-0.0991704
159	0xbef3f882	-0.47650534
160	0xbeeb5d80	-0.45969772
161	0xbf0d8818	-0.5528579
162	0xbd962d8d	-0.07332907
163	0x3d6d1d32	0.05788917
164	0x3f2b56dc	0.6692941
165	0xbd154336	-0.03644105
166	0x3e71ee22	0.23625997
167	0xbef9436d	-0.48684254
168	0xbdae0668	-0.08497316
169	0x3d67bd08	0.05657676
170	0x3f2934eb	0.6609637
171	0xbedfa9dd	-0.43684283
172	0xbe140bb2	-0.14457586
173	0x3e8116b2	0.25212628
174	0x3dbe683a	0.092972234
175	0x3f3b3447	0.73126644
176	0xbedb164f	-0.42790458
177	0xbe81b4c6	-0.25333232
178	0x3f00a599	0.5025268
179	0x3ebce2b2	0.36891705
180	0xbdb2ed3b	-0.08736654
181	0x3e30339a	0.17207184
182	0x3e8b7171	0.27234986
183	0xbf16bc13	-0.5888073
184	0x3e8e3516	0.27774876
185	0xbe6f65f0	-0.2337873
186	0xbf34223c	-0.7036474
187	0xbf31b879	-0.6942211
188	0xbe876809	-0.2644656
189	0xbecaf63c	-0.39640987
190	0xbe6184b4	-0.22023278
191	0xbde6b8f0	-0.11265743
192	0x3def3986	0.116808936
193	0xbf042945	-0.5162547
194	0x3f25083a	0.6446568
195	0xbf094361	-0.5361844
196	0xbf115347	-0.56767696
197	0x3ec79d3e	0.38987154
198	0x3e5fc734	0.21853334
199	0xbe0d0880	-0.13772774
200	0x3c778863	0.015108201
201	0xbd25c52c	-0.04047124
202	0x3dcbbbe5	0.099479474
203	0xbe840667	-0.25786135
204	0xbeb1b482	-0.3470803
205	0x3f00f54e	0.50374305
206	0xbebb376b	-0.36565718
207	0x3e3cf9f0	0.18454719
208	0xbf0c060e	-0.5469674
209	0x3e9e9f03	0.3098069
210	0xbec17b5d	-0.3778943
211	0xbf19b907	-0.60047954
212	0xbcf99a15	-0.03046898
213	0xbf26c8e8	-0.6515031
214	0xbeb1b6d5	-0.34709802
215	0x3ef723d8	0.48269534
216	0xbd965c43	-0.07341816
217	0xbee82da3	-0.45347318
218	0xbf2c074e	-0.67198646
219	0x3efad2d6	0.4898898
220	0xbec400e4	-0.3828193
221	0x3e502935	0.20328219
222	0x3ed14b96	0.4087798
223	0x3e1dcfc7	0.15411292
224	0x3e32533c	0.17414564
225	0x3d388cd0	0.045056164
226	0xbede2df6	-0.4339444
227	0x3d892305	0.066961326
228	0xbe97df5c	-0.29662597
229	0x3ed5f9e5	0.41792217
230	0x3e80daff	0.2516708
231	0x3e3ae780	0.18252373
232	0x3f1239bd	0.5711935
233	0xbe46ee63	-0.19426875
234	0xbe1c69eb	-0.1527478
235	0x3ed03d25	0.4067165
236	0x3f2b97e3	0.67028636
237	0xbe30df39	-0.17272653
238	0xbefa5c9e	-0.48898786
239	0xbf03787c	-0.5135572
240	0x3ef8f636	0.48625344
241	0xbc6cc300	-0.0144507885
242	0x3d79144f	0.060810383
243	0x3f1656b2	0.58726037
244	0x3ceb75ec	0.028742753
245	0xbef22c38	-0.4729936
246	0xbf26ef0d	-0.6520851
247	0x3f01534d	0.5051773
248	0x3f0589af	0.52163213
249	0x3d0e9c20	0.03481686
250	0xbeccdc47	-0.40011808
251	0x3eeaef20	0.45885563
252	0xbf28c813	-0.6593029
253	0x3db4a325	0.0882018
254	0xbf148d78	-0.58028364
255	0x3de6203b	0.11236616

f.V.0.bias f4 [128]
0	0x3eecae08	0.46226525
1	0xbf1ef85c	-0.62097716
2	0xbf19354c	-0.5984695
3	0xbe437cb6	-0.19090542
4	0x3f1d81a5	0.61525947
5	0x3f2ce03d	0.6752966
6	0x3ec8fed5	0.3925692
7	0xbea4bd67	-0.32175753
8	0x3f099083	0.5373613
9	0xbf1d395d	-0.61415654
10	0xbef4b50c	-0.47794378
11	0x3e2333a5	0.1593767
12	0xbf1fbdfc	-0.6239927
13	0x3f2eedaf	0.68331426
14	0x3d9ab1c0	0.07553434
15	0xbed548ed	-0.416572
16	0xbdf83e1d	-0.12121222
17	0x3dc816f6	0.097700045
18	0xbee7bd10	-0.4526143
19	0x3f2086a2	0.62705433
20	0x3cd271f4	0.025689103
21	0x3efeca3a	0.49763662
22	0x3f127a94	0.5721829
23	0xbde07e55	-0.10961596
24	0xbe54381c	-0.20724529
25	0x3ca6d16a	0.020363528
26	0xbe609bc8	-0.21934426
27	0x3f3b57a4	0.73180604
28	0xbf1197c8	-0.56872225
29	0xbf1812a2	-0.5940343
30	0xbf0b722e	-0.544711
31	0x3ea475cc	0.32121122
32	0x3e9766b3	0.2957054
33	0xbf11aef6	-0.56907594
34	0xbe4ec727	-0.20193158
35	0x3e21387c	0.15744203
36	0xbf2396fd	-0.63902265
37	0xbf2bbea1	-0.6708775
38	0x3e875c9c	0.26437843
39	0xbd36c28e	-0.044619136
40	0xbee515c5	-0.4474317
41	0xbe470aba	-0.19437686
42	0xbdb9aa38	-0.0906567
43	0xbbbf8c10	-0.005845554
44	0x3ef4938c	0.4776882
45	0xbe94b0d0	-0.29041147
46	0x3f1cab94	0.6119931
47	0x3e7fc507	0.24977504
48	0x3f0b1235	0.54324657
49	0x3e7de116	0.24792895
50	0xbedeb8e1	-0.43500426
51	0x3eac06a4	0.33598816
52	0x3f00f551	0.50374323
53	0x3da8b26b	0.082371555
54	0x3c6f4e4d	0.014606071
55	0xbecf0cf9	-0.40439585
56	0x3f1b3c31	0.6063872
57	0x3e0277e1	0.12741043
58	0xbed7801a	-0.4208992
59	0xbf26226c	-0.64896274
60	0xbeac2f0e	-0.3362965
61	0x3edf4080	0.43603897
62	0x3f218344	0.6309092
63	0x3f3882a1	0.72074324
64	0xbf1f7b06	-0.62297094
65	0xbeef3353	-0.46718845
66	0x3f1f7fd4	0.62304425
67	0x3ea943f4	0.33059657
68	0xbee67e46	-0.45018214
69	0x3f1673a0	0.5877018
70	0x3eaecb73	0.34139594
71	0xbe951e84	-0.29124844
72	0xbe8e90b2	-0.2784477
73	0x3df6709a	0.12033196
74	0xbe2c192b	-0.16806476
75	0x3ef8b85a	0.4857815
76	0x3e7774b1	0.24165608
77	0xbec7152e	-0.38883346
78	0xbf321aaa	-0.69571936
79	0x3ec132c7	0.37734053
80	0x3ef3e1a8	0.476331
81	0x3e4ce077	0.20007502
82	0xbe15f41e	-0.14643905
83	0xbf196cd5	-0.5993169
84	0x3f1c6d7a	0.6110455
85	0x3ea37ef7	0.31932804
86	0x3f1b7b4d	0.6073502
87	0xbe943e37	-0.28953716
88	0xbf12fb71	-0.5741492
89	0xbe792d88	-0.24333775
90	0x3ecf6e3d	0.40513793
91	0x3e38f5b2	0.18062475
92	0xbf14df6e	-0.58153427
93	0xbea5ccf7	-0.32382938
94	0x3f27ad52	0.6549884
95	0xbf16e356	-0.5894064
96	0xbeff10de	-0.49817556
97	0x3f06d118	0.526628
98	0xbe3e575c	-0.18588012
99	0xbeeb64d0	-0.4597535
100	0x3f056b1a	0.5211655
101	0x3c86be24	0.016448088
102	0x3ec5e36f	0.3865008
103	0x3eb1d525	0.3473293
104	0xbf3b3ed1	-0.73142725
105	0xbf089da9	-0.5336557
106	0x3f2683c1	0.6504479
107	0xbe3dea02	-0.18546298
108	0xbd28a088	-0.04116872
109	0x3eeb5956	0.45966595
110	0x3f117437	0.56817955
111	0x3f1555bc	0.58333945
112	0xbf01dfbc	-0.50732017
113	0xbea146d1	-0.3149934
114	0xbf3690e0	-0.7131481
115	0x3f0d5278	0.5520396
116	0xbdb62ef0	-0.08895671
117	0x3e1bbc93	0.15208654
118	0xbeff1871	-0.49823335
119	0xbf0a419d	-0.5400637
120	0xbf1d4010	-0.61425877
121	0x3f19ed2b	0.60127515
122	0xbf03c7ce	-0.5147675
123	0x3e809075	0.25110212
124	0xbc1c6be9	-0.009547212
125	0x3f037db0	0.5136366
126	0xbf1ea38d	-0.6196831
127	0xbd5c2a14	-0.053751066

f.V.2.weight f4 [128, 128]
0	0x3d44847e	0.047977917
1	0xbc2938b0	-0.010328457
2	0x3da6408e	0.081177816
3	0xbd9084a8	-0.07056552
4	0xbd863a1e	-0.06554054
5	0xbc253305	-0.010082965
6	0xbc1adde3	-0.009452316
7	0x3e004e3d	0.12529846
8	0xbd3235bb	-0.043508273
9	0xbda90c6d	-0.08254323
10	0xbd25cdbe	-0.040479414
11	0xbd76e917	-0.060280886
12	0xbce94a70	-0.028477877
13	0xbd5652ca	-0.052325048
14	0x3d8d7d42	0.06908657
15	0x3d41d10b	0.0473185
16	0x3dd84eb8	0.105618894
17	0xbd144939	-0.036202643
18	0x3ddf1449	0.10892541
19	0x3cf5e157	0.030014677
20	0xbd876cc2	-0.06612541
21	0x3d7a140b	0.06105427
22	0x3d837c82	0.06420232
23	0xbda3ed40	-0.08004236
24	0xbd957bc8	-0.07299
25	0xbc804a33	-0.015660381
26	0x3ce0af93	0.02742747
27	0x3c2c5c32	0.010520028
28	0x3c214f7e	0.009845613
29	0xbd23d57f	-0.039998528
30	0xbda8da59	-0.082447715
31	0xbd002e3b	-0.03129409
32	0xbd503c4a	-0.050838746
33	0x3c4ebe78	0.0126186535
34	0x3dbbfb87	0.091788344
35	0x3d030c96	0.031994425
36	0xbd28e3ca	-0.04123286
37	0x3d51ccfd	0.051220883
38	0x3dd3ba8d	0.10338316
39	0x3d75a227	0.059969094
40	0x3d82c099	0.06384391
41	0xbce0223b	-0.027360072
42	0x3d641dd7	0.05569252
43	0xbd022635	-0.03177472
44	0x3d163f28	0.036681324
45	0x3dd18548	0.102304995
46	0xbdaa94d9	-0.08329172
47	0x3cae3a58	0.021268055
48	0x3d480f90	0.048842967
49	0x3d92a2a8	0.071599305
50	0xbd1de38a	-0.038547076
51	0xbd92b4d0	-0.071633935
52	0x3d0effc5	0.03491189
53	0x3cb6acf0	0.02229926
54	0xbd2ff96f	-0.042962488
55	0x3c923e98	0.017852113
56	0xbdad1aa3	-0.08452346
57	0x3d91ad0a	0.07113083
58	0xbcb60deb	-0.022223433
59	0xbd263f5d	-0.04058777
60	0x3c90fb68	0.017698005
61	0x3d50bbca	0.05096034
62	0xbd94010d	-0.07226763
63	0x3ae85a28	0.0017727064
64	0x3bda3fe0	0.0066604465
65	0xbcc805f8	-0.024416909
66	0xbd856ace	-0.06514512
67	0xbcdad501	-0.026712896
68	0x3dc51912	0.096239224
69	0x3d34d614	0.044149473
70	0x3d3f0e17	0.046644296
71	0x3d8b23d0	0.0679394
72	0x3d4227e3	0.04740132
73	0x3da9b888	0.0828715
74	0xbcee9c0c	-0.029127143
75	0xbd3c88b2	-0.0460288
76	0x3b28d627	0.002576241
77	0x3df0eeba	0.117642835
78	0xbdaddcc8	-0.08489376
79	0xbb9cd1f6	-0.0047857715
80	0xbc207251	-0.00979288
81	0x3d89c6be	0.0672736
82	0xbc115bc6	-0.008871978
83	0x3d826516	0.06366937
84	0x3d2fb8e7	0.042900946
85	0xbd2ed4ad	-0.042683292
86	0xbdb8cec1	-0.0902381
87	0x3c792fde	0.015209166
88	0x3d251b66	0.040309332
89	0xbd7bd9fb	-0.06148718
90	0x3d8050c1	0.062654026
91	0xbd056c0d	-0.03257375
92	0x3c54ebb0	0.012995645
93	0x3ab2f96e	0.0013654658
94	0xbcdac794	-0.026706494
95	0x3d8c4d1f	0.06850647
96	0xbcbfbf17	-0.023406548
97	0x3d1dd012	0.03852851
98	0xbcc38b70	-0.0238702
99	0xbca5bae0	-0.02023071
100	0x3d402e82	0.046919353
101	0x3d693bb0	0.056941688
102	0xbda12d41	-0.078699596
103	0x3d639d33	0.05556984
104	0x3d055a14	0.03255661
105	0xbcb461c9	-0.022019284
106	0x3d671563	0.05641688
107	0x3db995d1	0.09061778
108	0x3db0e2cc	0.08637008
109	0x3d14d41e	0.036335103
110	0x3d6837ae	0.056693725
111	0xba5463ad	-0.0008102011
112	0x3da97fb7	0.08276313
113	0x3ac43580	0.0014969558
114	0xbd518d4a	-0.051160134
115	0x3c51c8fb	0.012804265
116	0xbcd5c18c	-0.026093267
117	0xbcf45664	-0.02982635
118	0xbd025057	-0.0318149
119	0x3d71c4e2	0.059025653
120	0xbd2245d4	-0.039617375
121	0xbc082f8f	-0.00831212
122	0x3ce51faa	0.0279692
123	0x3d6d780b	0.05797581
124	0x3d5fa81a	0.054603674
125	0x3d9d56ac	0.07682547
126	0x3d1cdf7c	0.03829907
127	0xbc96ffa0	-0.018432438
128	0x3d766378	0.060153455
129	0x3d86ebf1	0.06587971
130	0xbd0a5086	-0.0337682
131	0xbb9c9b85	-0.0047792816
132	0xbcd52c86	-0.026022207
133	0xbd3bbb3f	-0.04583287
134	0xbd8d6145	-0.06903318
135	0xbdb1746a	-0.08664782
136	0xbd4001a5	-0.04687657
137	0x3d510496	0.051029764
138	0xbce61ad4	-0.028088965
139	0xbd418eeb	-0.047255438
140	0xbc962c34	-0.018331625
141	0xbc34fa32	-0.011045979
142	0xbcc717ab	-0.024303278
143	0x3d8b1a40	0.06792116
144	0xbc9152e6	-0.017739724
145	0x3d9f290f	0.07771503
146	0x3cb4f040	0.022087216
147	0x3d571ad1	0.05251581
148	0xb88eafb3	-6.803814e-05
149	0x3d713689	0.0588899
150	0x3db25307	0.087072425
151	0xbda69bcf	-0.08135187
152	0xbd462b5a	-0.048381187
153	0x3dae7c35	0.08519784
154	0x3d1d060f	0.038335856
155	0x3cc89c03	0.024488455
156	0xbd873ace	-0.06603013
157	0x3d7b1764	0.061301604
158	0xbc4aa0b8	-0.01236742
159	0xbaf1e7f5	-0.0018455969
160	0xbc081266	-0.008305168
161	0xbd8b15d6	-0.06791274
162	0x3c8c75a1	0.017145934
163	0x3a1b7cfe	0.0005931406
164	0x3dab1fe7	0.08355694
165	0x3c9e854b	0.019350668
166	0x3cee0746	0.029056203
167	0xbd36b6e4	-0.04460801
168	0xbd39173c	-0.045188174
169	0x3d90b4d1	0.07065738
170	0xbd551a0c	-0.052026793
171	0x3dbc5fa8	0.091979325
172	0x3d32e7f0	0.043678224
173	0xbd92c10d	-0.07165728
174	0xbd83b9d1	-0.06431926
175	0x3d6db04e	0.058029465
176	0x3d0a8880	0.033821583
177	0x3daba7ca	0.083816126
178	0xbb3eca60	-0.0029112324
179	0xbcdf6a83	-0.027272468
180	0x3d5159e0	0.051111102
181	0x3cb98734	0.022647478
182	0xbd959b52	-0.073050156
183	0xbdcf4c78	-0.10122007
184	0xbdb3cc7b	-0.08779236
185	0x3d65b3ab	0.056079548
186	0x3d9c95e7	0.07645779
187	0x3cebb79c	0.028774075
188	0xbdcc52d6	-0.09976737
189	0x3c35eee0	0.0111043155
190	0xbd3e9803	-0.04653169
191	0x3d87feb8	0.066403806
192	0x3da76791	0.081740506
193	0xbd89266a	-0.0669678
194	0x3d4c1b69	0.049830828
195	0xbd76fe34	-0.06030102
196	0xbd0f7fd0	-0.035034
197	0x3d97f84b	0.07420405
198	0x3d20cd1e	0.039258115
199	0x3d4fa383	0.050693046
200	0xbcfc5fc7	-0.030807389
201	0xbcaad678	-0.02085422
202	0xbbe1714f	-0.0068799625
203	0x3d0fd0be	0.03511118
204	0x3d60af84	0.054854885
205	0xbdc1ac80	-0.0945673
206	0xbd2b4c63	-0.041820895
207	0x3d8d1e80	0.06890583
208	0xbd892bc6	-0.06697802
209	0x3c549a73	0.012976277
210	0xbc59a5cc	-0.013284158
211	0x3d7ac18b	0.061219733
212	0x3d843218	0.06454867
213	0xbcd7effd	-0.026359553
214	0x3d31c695	0.043402273
215	0x3d69e858	0.057106346
216	0x3be56aff	0.0070012803
217	0xbd86d8c0	-0.065843105
218	0xbdaf8065	-0.08569411
219	0x3c4bfaf5	0.01244997
220	0xbd6c73a4	-0.05772747
221	0x3d82a68d	0.06379423
222	0xbd047ded	-0.032346655
223	0x3d466c32	0.048443027
224	0x3d54eec8	0.051985532
225	0xbdaed8e0	-0.085374594
226	0xbc059062	-0.008152099
227	0x3d848b7d	0.06471918
228	0x3d91dd4c	0.07122287
229	0xbca82df9	-0.020529734
230	0xbc7ee63c	-0.015557822
231	0x3d90cb86	0.07070069
232	0xbdbd397a	-0.092394784
233	0xbb4c948f	-0.0031216478
234	0x3a749a25	0.00093308307
235	0xbda6b66d	-0.08140264
236	0xbd476c5e	-0.04868733
237	0x3b493261	0.0030700194
238	0x3d8ff795	0.070296444
239	0x3cb70806	0.022342693
240	0xbd39e950	-0.04538852
241	0xbd8fec08	-0.07027441
242	0x3d8d7861	0.06907726
243	0x3c2d0c54	0.010562021
244	0x3d3fe0c8	0.046845227
245	0xbc695f35	-0.0142438905
246	0xbd24fe50	-0.040281594
247	0xbcd00ae4	-0.025395818
248	0x3db2fb29	0.08739311
249	0x3d68aa5a	0.056803085
250	0x3d466cd4	0.04844363
251	0xbd615681	-0.055014137
252	0xbd8b6128	-0.068056405
253	0x3d408749	0.047004018
254	0x3c2e1611	0.010625378
255	0xbd331b50	-0.04372722

f.V.2.bias f4 [128]
0	0xbd002210	-0.031282485
1	0xbe12306e	-0.14276287
2	0xbcc95cf0	-0.024580449
3	0xbd94c56b	-0.07264217
4	0x3dd985e4	0.10621241
5	0x3c567766	0.01308999
6	0xbd9e713e	-0.07736443
7	0xbc2b47df	-0.010454147
8	0x3d4b3a1a	0.049615957
9	0x3d33d726	0.043906353
10	0xbd0ed204	-0.034868255
11	0x3d65ff1e	0.0561515
12	0x3d9258f3	0.07145872
13	0x3d19eff6	0.03758236
14	0x3db9ed71	0.090784915
15	0xbd8e7eff	-0.06957816
16	0xbd14af01	-0.03629971
17	0x3d962583	0.073313735
18	0x3cb5cc07	0.022192014
19	0x3c0ed407	0.008717543
20	0xbdb2c6e1	-0.087293394
21	0x3ca9b3de	0.02071565
22	0x3d277d80	0.04089117
23	0xbb113f25	-0.0022162881
24	0xbdb028c2	-0.08601524
25	0x3debcb1a	0.11513348
26	0xbdf3f5d1	-0.1191212
27	0x3da10c24	0.07863644
28	0x3dacafb5	0.08431951
29	0x3d5c398c	0.05376582
30	0x3d352215	0.044221956
31	0x3cff07c4	0.031131633
32	0xbd351aaa	-0.044214882
33	0x3d5c9956	0.05385717
34	0x3d7d8652	0.061895676
35	0xbd9a68c5	-0.075395145
36	0x3d2bc1f7	0.041933026
37	0xbd5ee8f1	-0.05442137
38	0x3d2bd82c	0.041954204
39	0x3c2b20ae	0.010444803
40	0xbda72a0d	-0.081623174
41	0x3de436ac	0.1114324
42	0x3d3ab476	0.045582257
43	0xbcb8b7fd	-0.02254867
44	0x3d04ee0f	0.032453593
45	0xbd9c7ff0	-0.0764159
46	0xbd4e24bd	-0.050328005
47	0xbcd2f4cd	-0.025751496
48	0xbdbc6027	-0.09198027
49	0x3cc76171	0.024338456
50	0xbdb28ce4	-0.08718279
51	0xbd0bc9db	-0.03412805
52	0x3c06a788	0.0082186535
53	0x3c765ff9	0.01503753
54	0x3ddcc4fa	0.10779758
55	0x3dc75de8	0.09734708
56	0x3c8d3ca2	0.017240826
57	0x3be07ac7	0.0068505737
58	0xbd1a3742	-0.037650354
59	0x3da363f1	0.07978047
60	0xbd7e2906	-0.06205084
61	0xbbb3665a	-0.0054748477
62	0xbd8f19b3	-0.069873236
63	0x3d8788e2	0.06617905
64	0xbd8d4b35	-0.0689911
65	0xbd59d471	-0.053181116
66	0x3e35ddc1	0.17760374
67	0xbd8bf43c	-0.068336934
68	0x3dc40a0e	0.0957223
69	0x3d943e03	0.0723839
70	0x3c1e5d2a	0.009665767
71	0x3dd39ac2	0.10332252
72	0xbc850ad4	-0.016240515
73	0x3d09d0f2	0.03364653
74	0xbd985fba	-0.074401334
75	0xbcf1bae9	-0.029508071
76	0x3d5daf3b	0.05412219
77	0xbdb4bc62	-0.08824994
78	0x3c9cffa4	0.019164868
79	0x3db5750e	0.08860217
80	0xbd749d50	-0.059720337
81	0x3c17c7c2	0.009263935
82	0x3c3a7dd3	0.011382538
83	0xbcacfb1e	-0.021115836
84	0xbc624ead	-0.013812703
85	0x3d3f64ee	0.046727113
86	0x3d3a19c9	0.045434747
87	0x3ca97254	0.020684399
88	0xb886f10a	-6.434515e-05
89	0x3d284e3d	0.04109024
90	0xbc5e11d6	-0.013554057
91	0x3b7792a0	0.0037776604
92	0xbdb49e48	-0.08819252
93	0x3dd7b237	0.10532039
94	0x3d4fffe9	0.050781164
95	0x3d3438e9	0.043999586
96	0x3c93a039	0.018020736
97	0xbd98fd95	-0.07470242
98	0x3cba5264	0.022744365
99	0x3de574f2	0.11203946
100	0xbd9baeeb	-0.07601722
101	0xbd691cf9	-0.056912396
102	0xbd0dc301	-0.0346098
103	0xbd0da075	-0.034576852
104	0x3d8bf9b9	0.0683474
105	0xbd53bcc0	-0.051693678
106	0xbcbf1fde	-0.023330625
107	0xbd5e4696	-0.054266535
108	0xbe00adc8	-0.12566292
109	0x3c7dbf9d	0.015487579
110	0x3da99e62	0.08282162
111	0xbd5671b7	-0.05235454
112	0x3c45aa6b	0.012064557
113	0x3d8aeecc	0.06783828
114	0x3cde5310	0.027139217
115	0x3db5c774	0.08875933
116	0xbbf1db22	-0.007380859
117	0x3cf3ab33	0.02974472
118	0xbda4a4ab	-0.080392204
119	0x3cab22e7	0.020890666
120	0x3d04090e	0.032235198
121	0xbcf91e51	-0.030409964
122	0xbda0d8e8	-0.078538716
123	0x3cd5806a	0.02606221
124	0xbd2630b8	-0.040573806
125	0xbd725fec	-0.05917351
126	0x3cbd9f4d	0.02314725
127	0x3db5ae85	0.088711776

f.V.4.weight f4 [128, 128]
0	0x3d8a2508	0.067453444
1	0x3d5a7c47	0.053341176
2	0x3d8aa34b	0.06769427
3	0xbdb6bd2d	-0.08922801
4	0x3cece24a	0.028916497
5	0x3c201afd	0.0097720595
6	0xbd9da78d	-0.076979734
7	0xbbcf2faf	-0.006322823
8	0xbc838204	-0.016053207
9	0x3daf4eed	0.08559976
10	0x3d6595e6	0.056051157
11	0x3cd404fc	0.025881283
12	0x3c6a7d74	0.014312137
13	0xbd8033b6	-0.06259863
14	0xbd93d5c8	-0.0721851
15	0xbc722408	-0.014779098
16	0xbd88ad12	-0.066736355
17	0x3c7e2618	0.015512012
18	0xbc1ddb88	-0.00963486
19	0x3d33a330	0.0438568
20	0x3da8a8e3	0.082353376
21	0xbd6f5972	-0.05843491
22	0x3d7bab49	0.061442647
23	0xbd8d93f9	-0.06912989
24	0xbb43e95d	-0.0029893734
25	0x3dbcd504	0.09220317
26	0xbd30ba5c	-0.043146476
27	0xbd6893eb	-0.05678169
28	0xbccbfb84	-0.024900205
29	0xbd37bbfe	-0.044857018
30	0x3dbf7248	0.09347969
31	0x3d977701	0.07395745
32	0x3d90c8af	0.07069527
33	0x3ddc98e8	0.10771352
34	0xbc2be180	-0.010490775
35	0xbcc023c4	-0.023454554
36	0xbcdb99f4	-0.026806809
37	0x3cb2178c	0.021739744
38	0xbd8314c9	-0.06400449
39	0xbd5a995e	-0.05336892
40	0x3c1095a0	0.008824736
41	0xbd02cfc0	-0.031936407
42	0x3d8583ef	0.06519305
43	0x3da8c974	0.08241549
44	0xbd13cd96	-0.036084734
45	0x3d3ff1dd	0.04686152
46	0x3d330a06	0.04371073
47	0xbc8cbab3	-0.017178869
48	0xbb8561bc	-0.0040704887
49	0x3d5b54e1	0.053547744
50	0x3d6784c2	0.056523092
51	0xbd320385	-0.043460388
52	0x3d68f41a	0.05687342
53	0xbd21cf39	-0.039504264
54	0xbd2e2cf4	-0.04252334
55	0xbc88278f	-0.016620426
56	0xbd78c18e	-0.060731463
57	0x3ca7b9af	0.020474283
58	0x3d20e61b	0.039281946
59	0xbd6b40da	-0.057434894
60	0x3d9a166f	0.0752381
61	0x3cc9487a	0.024570692
62	0xbd962f31	-0.0733322
63	0xbd8eb242	-0.06967594
64	0x3d93d6a2	0.07218672
65	0xbc6b9048	-0.014377661
66	0x3c37a4b6	0.011208704
67	0xbc9a5cf8	-0.01884316
68	0x3c605c8b	0.013693939
69	0xbd8fc274	-0.07019511
70	0x3d0da243	0.034578573
71	0x3c04dc1b	0.008109118
72	0xbba5430f	-0.0050433944
73	0x3d9ddd3f	0.07708215
74	0xbd34440d	-0.04401021
75	0x3d74e2e4	0.059786692
76	0x3df6bd98	0.12047881
77	0xbcc843df	-0.024446426
78	0xbc453088	-0.0120354965
79	0xbc695330	-0.014241025
80	0xbd0452f4	-0.032305673
81	0xbdb36385	-0.08759216
82	0xbd78129c	-0.060564622
83	0x3cce62ec	0.025193654
84	0xbd92e8cf	-0.07173311
85	0xbd924352	-0.071417466
86	0x3d3beecf	0.045882042
87	0x3cc91c1f	0.024549542
88	0xbd81f476	-0.06345455
89	0x3dbd68ab	0.092484795
90	0xbcbba602	-0.022906307
91	0xbd9396b7	-0.07206481
92	0xbcdd2c2e	-0.026998606
93	0x3dbc748f	0.09201919
94	0xbc5f4dbf	-0.013629376
95	0x3dac640a	0.084175184
96	0xbcb1112a	-0.02161463
97	0x3d93be17	0.07213991
98	0xbda2c252	-0.0794722
99	0xbd3d7274	-0.04625173
100	0xbd812061	-0.06305004
101	0xbbf0bb61	-0.007346556
102	0xbb0ce0d9	-0.0021496324
103	0x3d1a98f2	0.037743516
104	0x3da60ebf	0.08108281
105	0xbd1ae402	-0.0378151
106	0x3c40006b	0.01171885
107	0xbc913e64	-0.017729945
108	0x3ca202e5	0.01977677
109	0xbc332db4	-0.010936189
110	0x3d2a8dd9	0.041639183
111	0xbdae60f5	-0.08514587
112	0xbd69c699	-0.057074163
113	0x3dc228df	0.09480452
114	0x3d5eee6e	0.054426603
115	0xba7f171d	-0.0009730922
116	0xbd71e94a	-0.059060372
117	0x3d8a9e25	0.06768445
118	0x3d4cd256	0.05000528
119	0xbd8c45d3	-0.068492554
120	0x3d9e9afb	0.07744404
121	0xbbbeb187	-0.0058195028
122	0xbd985623	-0.07438304
123	0xbdc73d53	-0.097284935
124	0x3d3de755	0.046363194
125	0x3d1cea02	0.038309105
126	0x3d81710e	0.063203916
127	0x3bd8ab2e	0.006612203
128	0x3b3691e0	0.0027857944
129	0xbdb4771c	-0.08811781
130	0xbcdbc09e	-0.026825245
131	0x3da56e0f	0.08077633
132	0xbca5a9fc	-0.020222656
133	0x3cf1c98c	0.02951505
134	0xbc5fe1a8	-0.0136646405
135	0xbd00d225	-0.03145041
136	0xbd4c275e	-0.04984223
137	0x3d5d7086	0.05406239
138	0x3d5c1bda	0.0537375
139	0xbda4601a	-0.080261424
140	0xbd5e810d	-0.05432229
141	0xbd833a3a	-0.0640759
142	0xbc1fce08	-0.0097537115
143	0xbc4ad5e8	-0.012380101
144	0x3c9f32f0	0.019433469
145	0x3d61d6de	0.055136554
146	0xbce2e582	-0.027697328
147	0xbd1683ed	-0.036746908
148	0x3d4c0396	0.049808107
149	0xbd3af67a	-0.045645215
150	0xbd3f693d	-0.046731222
151	0x3d613bd6	0.054988705
152	0x3d0c9738	0.0343239
153	0xbc22fce0	-0.009947985
154	0xbd713684	-0.05888988
155	0x3d4745de	0.048650615
156	0x3d415952	0.047204323
157	0xbc60f7d0	-0.013730958
158	0xbd56a3dd	-0.052402366
159	0xbd6c65cc	-0.05771427
160	0x3d59c996	0.053170763
161	0x3c9cb608	0.019129768
162	0x3c7bb7c8	0.015363641
163	0x3d847737	0.06468051
164	0x3d63d88e	0.055626445
165	0xbd81eb08	-0.06343657
166	0x399a8f00	0.00029479712
167	0xbd17be50	-0.03704673
168	0xbda8b4a7	-0.08237582
169	0x3dac1397	0.08402174
170	0xbd02fe76	-0.031980954
171	0x3dac8827	0.084244065
172	0x3d6e0216	0.058107458
173	0xbdac7ee8	-0.08422643
174	0x3d87ccd1	0.066308625
175	0xbbc95420	-0.0061440617
176	0xbd2d5b8e	-0.04232364
177	0x3c7fc560	0.015611023
178	0xbdab6f8c	-0.08370885
179	0x3d9105ab	0.07081159
180	0x3ca264cc	0.019823454
181	0xbd81dcfd	-0.06340978
182	0x3d1947ea	0.0374221
183	0x3b1c5e80	0.0023860037
184	0x3da55ddd	0.080745436
185	0x3b25d1a0	0.0025301948
186	0x3d9bcf8f	0.07607948
187	0xbda311e0	-0.07962394
188	0xbdab333c	-0.083593816
189	0x3d48df6a	0.04904119
190	0xbd680213	-0.056642603
191	0xbd3e23c8	-0.046420842
192	0x3cd9a348	0.026567116
193	0x3da989cf	0.08278238
194	0x3d4714ba	0.04860375
195	0xbcf76a34	-0.030202009
196	0xbd38eaa8	-0.04514566
197	0x3d638e3a	0.05555556
198	0xbd3f356f	-0.046681818
199	0x3c0d0a78	0.008608453
200	0x3da83519	0.082132526
201	0x3d8a41b1	0.06750811
202	0x3dadee79	0.08492751
203	0xbd70614e	-0.058686547
204	0xbd5b9dfb	-0.05361746
205	0x3d88df6d	0.0668324
206	0x3d875fed	0.06610093
207	0x3daf022f	0.08545338
208	0xbd0e0a42	-0.03467775
209	0xbd4d0645	-0.050054807
210	0x3d2c3bbe	0.042049162
211	0x3c96996c	0.018383704
212	0xbd609c5b	-0.054836612
213	0xbd6ab24a	-0.057298936
214	0xbdb4083e	-0.087906346
215	0xbdafc2ce	-0.08582078
216	0x3dab1bcf	0.083549134
217	0x3d76b92e	0.060235195
218	0xbda34958	-0.079729736
219	0x3d2e8a6e	0.042612486
220	0x3d86af45	0.06576399
221	0x3d6fa786	0.058509372
222	0xbd81e2fc	-0.06342122
223	0x3ae43800	0.0017411709
224	0xbd0891ec	-0.033342287
225	0xbd202909	-0.039101634
226	0x3d933e4d	0.07189617
227	0x3c5d55f0	0.013509259
228	0x3c817d9c	0.015806966
229	0xbbf55520	-0.0074869543
230	0x3d5ac9f6	0.05341526
231	0x3bba9050	0.005693473
232	0xbd26bb98	-0.040706247
233	0xbd184a11	-0.03718001
234	0x3db1b62b	0.08677324
235	0xbd141908	-0.036156684
236	0xbc4a8880	-0.012361646
237	0x3cdee7b8	0.027210101
238	0x3c775f98	0.015098475
239	0xbd1ca297	-0.038240995
240	0x3c27afe0	0.010234803
241	0xbda3ad6c	-0.07992062
242	0xba1ebc00	-0.0006055236
243	0xbdb012c5	-0.0859733
244	0xbd9dfaba	-0.07713838
245	0x3da70141	0.08154536
246	0xbd5ab84e	-0.053398423
247	0xbd91ac85	-0.071129836
248	0xbba7aa10	-0.0051167086
249	0xbd522b17	-0.051310625
250	0x3b9b8f00	0.0047472715
251	0xbda17eb2	-0.07885493
252	0xbd4f2ae8	-0.050578028
253	0x3c14a980	0.009073615
254	0x3c821e3c	0.015883557
255	0x3b3f5360	0.0029193982

f.V.4.bias f4 [128]
0	0x3d90f3ab	0.07077726
1	0xbd23bc05	-0.03997423
2	0x3d99224d	0.074772455
3	0xbca51dc4	-0.020155795
4	0x3c568b4a	0.013094733
5	0xbda837a0	-0.082137346
6	0x3d9900dc	0.07470867
7	0x3daa20fe	0.08307074
8	0x3d90c7d1	0.07069362
9	0xbdee226b	-0.116276585
10	0x3cdd7390	0.027032644
11	0x3ced3512	0.02895597
12	0x3dd67079	0.10470671
13	0x3d7a14c5	0.061054964
14	0xbd6fefe9	-0.058578406
15	0x3bf9eb38	0.007626917
16	0xbcef1b8c	-0.02918794
17	0x3d908ad9	0.07057733
18	0xbd8df27a	-0.06931014
19	0x3c97dbfd	0.018537516
20	0x3de471da	0.11154528
21	0xbd78f150	-0.06077701
22	0x3da99c73	0.082817934
23	0x3d74d0e6	0.059769534
24	0xbd00ce14	-0.03144653
25	0xbc823234	-0.01589308
26	0xbd917619	-0.071026035
27	0x3ce2ba91	0.027676852
28	0x3db4a39c	0.088202685
29	0x3d2f6bb7	0.042827334
30	0xbd7e001a	-0.062011816
31	0x3dac8cb6	0.08425276
32	0x3da44937	0.08021777
33	0xbde3b87d	-0.11119173
34	0xbd417c6b	-0.047237795
35	0xbd8f815d	-0.07007096
36	0x3da21c5d	0.07915566
37	0xbbc6728f	-0.006056137
38	0x3c05df40	0.008170903
39	0x3b8318d0	0.0040007606
40	0xbd4a4cf1	-0.049389783
41	0x3d0198cc	0.03163986
42	0xbdbd8434	-0.09253731
43	0x3c8f0f1e	0.017463263
44	0x3dd652b7	0.10464995
45	0x3d0ac62e	0.033880405
46	0xbc9b139a	-0.018930245
47	0x3d5de2bc	0.05417131
48	0x3de8f124	0.11374119
49	0x3b2a9354	0.0026027756
50	0xbcc0e8ac	-0.023548447
51	0xbd3c6373	-0.04599328
52	0xbd981a75	-0.07426921
53	0xbde600bf	-0.11230611
54	0x3e1f7a6c	0.15574044
55	0x3d51e846	0.051246904
56	0x3e07c2af	0.1325786
57	0xbd5691b0	-0.052385032
58	0x3dbc525c	0.09195396
59	0xbde0b63c	-0.109722584
60	0xbd55c1a2	-0.052186616
61	0x3dcd7809	0.100326605
62	0x3d9362b9	0.07196564
63	0xbd6d8ccc	-0.057995602
64	0x3d8b5c82	0.06804754
65	0x3da716ca	0.081586435
66	0xbc562fad	-0.01307289
67	0xbc32fdb7	-0.010924748
68	0x3c7a9191	0.015293495
69	0x3c44cb08	0.012011297
70	0x3d6785f1	0.05652422
71	0xbd539146	-0.051652215
72	0xbd264746	-0.040595315
73	0xbc194063	-0.00935373
74	0xbd7388b6	-0.05945655
75	0x3cb15970	0.021649092
76	0x3d185207	0.037187602
77	0x3da458cc	0.08024749
78	0x3c82a51a	0.015947867
79	0x3d616684	0.055029407
80	0x3ca50d66	0.02014799
81	0x3d5c2bf3	0.05375285
82	0x3c8a0a93	0.016850745
83	0xb9b08770	-0.00033670245
84	0x3ceb3077	0.028709633
85	0xbd226717	-0.039649095
86	0xbd840d95	-0.06447903
87	0xbd1707d6	-0.036872707
88	0xbc99d7c0	-0.018779635
89	0xbdda71a9	-0.1066621
90	0xbe0d07dc	-0.1377253
91	0xbd05eac8	-0.032694608
92	0x3ce97598	0.028498456
93	0x3cf16d9d	0.029471213
94	0xbd664a6e	-0.056223325
95	0x3d9b68a3	0.07588317
96	0x3c925039	0.017860519
97	0xbddf19c7	-0.108935885
98	0xbc6d604a	-0.014488289
99	0xbd68a983	-0.056802284
100	0xbdd47e91	-0.10375703
101	0xbda7ab2a	-0.08186944
102	0xbc20468f	-0.0097824475
103	0xbd7e5ea5	-0.06210198
104	0xbb56cfc0	-0.0032777637
105	0x3d418735	0.047248084
106	0x3dd25e88	0.10271937
107	0x3dce7f96	0.10082929
108	0x3c9026c3	0.017596608
109	0x3ddb252a	0.10700448
110	0x3daaec63	0.083458684
111	0x3d621f08	0.055205375
112	0xbc3c1528	-0.011479653
113	0xbd2e7b8e	-0.0425983
114	0xbc40b26c	-0.011761289
115	0x3d7adf9e	0.061248414
116	0xbd4be343	-0.04977728
117	0x3dfe6e46	0.12423377
118	0xbd68820f	-0.05676466
119	0x3dc854a3	0.09781768
120	0x3d98297f	0.0742979
121	0xbd8fbecf	-0.07018816
122	0x3d2fa87b	0.042885285
123	0x3d3a5ed6	0.0455006
124	0x3d37219b	0.044709783
125	0x3d59b4dd	0.053151
126	0x3d15491b	0.036446672
127	0x3c4b698e	0.012415303

f.V.6.weight f4 [128, 128]
0	0x3d6e57dc	0.058189258
1	0xbb5c81a0	-0.0033646598
2	0xba9dee03	-0.0012049082
3	0x3c7be4c0	0.0153743625
4	0xbbc14a9f	-0.005898788
5	0xbca8649d	-0.020555789
6	0xbc4215c5	-0.011846011
7	0x3d1dc88f	0.038521346
8	0x3c6da85c	0.014505472
9	0x3c96a030	0.01838693
10	0xbd734622	-0.059393056
11	0xbc6c750c	-0.014432203
12	0x3cd6e36e	0.026231494
13	0x3d6614ed	0.0561723
14	0xbd9069bb	-0.070514165
15	0x3c7a514a	0.01527817
16	0x3b5e1c60	0.0033891425
17	0x3dab685c	0.08369514
18	0x3d14226a	0.036165632
19	0x3da8ed69	0.082484074
20	0x3d0588cd	0.032601167
21	0x3d07530c	0.033038184
22	0xbd52a496	-0.051426493
23	0xbd05a195	-0.0326248
24	0x3d6ca43e	0.05777382
25	0x3d3b7fa2	0.045776017
26	0xbd0fc011	-0.03509528
27	0x3d2de994	0.042459086
28	0x3d395b47	0.045253064
29	0xbbb1bc1c	-0.0054240357
30	0x3da016ad	0.07816825
31	0xbbfcf461	-0.007719562
32	0x3d3dc96f	0.04633468
33	0x3ca243ca	0.019807715
34	0xbbc776b1	-0.006087147
35	0xbd2abd4c	-0.041684434
36	0xbcbaa17b	-0.022782078
37	0xbd4f3cfb	-0.050595265
38	0x3d482496	0.048863016
39	0xbd81b76f	-0.06333815
40	0xbd40d487	-0.047077682
41	0xbd39a5ff	-0.04532432
42	0xbd2c657b	-0.042088967
43	0xbd8d3858	-0.06895512
44	0xbc92a4b7	-0.017900808
45	0x3dae431f	0.08508896
46	0x3dc0173d	0.09379432
47	0xbdab7e6a	-0.08373721
48	0x3c9b3819	0.018947648
49	0xbd20d229	-0.039262924
50	0x3d5eabbe	0.054363005
51	0xbc8a8828	-0.016910627
52	0x3ca8ddc0	0.020613551
53	0x3a735d0c	0.00092835794
54	0x3da7bd45	0.08190397
55	0xbae664b4	-0.0017577619
56	0xbb5f3261	-0.0034057128
57	0xbd55222c	-0.052034542
58	0xbbb9198f	-0.005648799
59	0x3d91870f	0.071058385
60	0xbc301ef9	-0.010749572
61	0xbd0db5f5	-0.034597356
62	0xbd98bda6	-0.074580476
63	0xbda4a0d0	-0.08038485
64	0xbd8070de	-0.06271528
65	0x3d848a7f	0.064717285
66	0xbce6d665	-0.028178403
67	0x3df783e8	0.12085706
68	0x3c516c78	0.012782209
69	0x3d39ee8b	0.045393508
70	0xbd943523	-0.072366975
71	0x3d455ec2	0.04818607
72	0xbc287210	-0.010281101
73	0xbd6f26dc	-0.05838667
74	0x3dd2f56a	0.10300715
75	0x3dafdc12	0.08586897
76	0xbca82c5b	-0.020528963
77	0x3d55d816	0.05220803
78	0xbd185199	-0.037187193
79	0x3d8bf501	0.0683384
80	0x3d3b5090	0.045731127
81	0xbd690655	-0.056890804
82	0x3c6f83f3	0.0146188615
83	0xbc757875	-0.0149823325
84	0x3d8ee4b6	0.06977217
85	0xbd882529	-0.06647713
86	0x3cc36028	0.023849562
87	0xb9cca100	-0.00039029866
88	0xbc307778	-0.010770671
89	0x3d7f5286	0.06233456
90	0xbb3574f1	-0.002768811
91	0xbcba70a9	-0.022758799
92	0x3d828f57	0.06374996
93	0xbd121212	-0.035661764
94	0xbd8d359a	-0.06894989
95	0x3d17acb1	0.037029926
96	0xbcefb4a0	-0.029260933
97	0xbd413eb8	-0.047178954
98	0xbdb1ce99	-0.086819835
99	0x3cdd6a1a	0.027028132
100	0x3cb63b10	0.02224496
101	0xbc66ff5b	-0.014098967
102	0xbd59f80b	-0.053215068
103	0x3d88cc0f	0.06679546
104	0xbad5b140	-0.0016303435
105	0xba228a46	-0.0006200414
106	0x3beaa509	0.007160787
107	0x3d13cf82	0.036086567
108	0x3dce6aa4	0.10078934
109	0xbd9d857c	-0.07691476
110	0x3db46a2c	0.08809313
111	0xbd0a3d82	-0.033750065
112	0x3c8f87bb	0.017520776
113	0x3cbc7354	0.023004211
114	0x3d5c601c	0.053802595
115	0xbc52320b	-0.012829314
116	0xbb5b8c60	-0.0033500418
117	0xbcb70c50	-0.022344738
118	0xbc590d70	-0.013247833
119	0x3cd9ba0b	0.02657797
120	0x3ccdd738	0.025127038
121	0x3d9bcaab	0.07607015
122	0xbc3574f7	-0.01107525
123	0x3d6750fc	0.056473717
124	0xbd526c06	-0.05137255
125	0x3cdcb821	0.026943268
126	0x3d63b215	0.055589754
127	0xbd24de69	-0.04025117
128	0xbd2e15b4	-0.042501166
129	0x3c3c3238	0.011486582
130	0x3d5b1212	0.05348403
131	0xbda66c04	-0.08126071
132	0xbd151d7b	-0.036405068
133	0xbced18b8	-0.02894245
134	0x3cb3d43c	0.021951787
135	0xbcd35d70	-0.02580139
136	0xbd9cae55	-0.07650439
137	0x3da75c29	0.08171875
138	0x3d85b569	0.06528742
139	0x3cfa4610	0.030550987
140	0x3d2f3fa2	0.042785294
141	0xbd0a96e5	-0.03383531
142	0x3d83d8a5	0.06437806
143	0xbd3f5480	-0.046711445
144	0xbd82c93c	-0.06386039
145	0x3d4d82ce	0.050173573
146	0xbd138fe9	-0.036025915
147	0xbce55516	-0.027994674
148	0x3c1265b0	0.008935377
149	0x3c5105b0	0.012757704
150	0xbd865831	-0.0655979
151	0x3cfc7fc4	0.030822642
152	0xbb373880	-0.002795726
153	0xbd811d15	-0.06304375
154	0x3db3031b	0.08740827
155	0xbdaa9fc1	-0.08331252
156	0xbc514150	-0.012771919
157	0x3c92500c	0.017860435
158	0xbcd0d108	-0.025490299
159	0x39895000	0.0002619028
160	0xbd917623	-0.07102611
161	0xbda509d1	-0.08058513
162	0xbd70ba0e	-0.058771186
163	0xba9eb480	-0.0012108237
164	0xbdabbafd	-0.083852746
165	0x3c29fc40	0.0103750825
166	0x3cfdea1c	0.030995421
167	0x3c519ce0	0.01279375
168	0xbd19f13a	-0.037583567
169	0x3d020b5c	0.031749114
170	0x3bb5c460	0.0055470914
171	0xbd28b861	-0.041191462
172	0x3b5db440	0.0033829361
173	0x3d6a187a	0.05715225
174	0xbd2e8636	-0.042608462
175	0xbd0b44f1	-0.034001295
176	0xbc347e40	-0.0110164285
177	0x3d4010aa	0.046890892
178	0xbd838e4f	-0.064236276
179	0xbce2da10	-0.02769187
180	0xbd4777f0	-0.048698366
181	0x3d4e5e26	0.050382756
182	0x3cdae05c	0.026718311
183	0xbd7bbeaf	-0.061461147
184	0xbd0a8d9a	-0.033826448
185	0xbd8db31d	-0.06918929
186	0xbd214071	-0.039368097
187	0x3d585a1e	0.052820317
188	0xbd5433b6	-0.051807128
189	0x3c34fd38	0.0110467
190	0xbc5219f0	-0.012823567
191	0xbd0f04dd	-0.034916747
192	0x3d54c2b2	0.05194349
193	0x3db224af	0.08698403
194	0x3d6d16f2	0.05788321
195	0x3d9ad541	0.07560206
196	0x3da80fe1	0.08206154
197	0xbd452756	-0.048133217
198	0x3b5fc880	0.0034146607
199	0x3d92620b	0.071476065
200	0xbd4af3b5	-0.049548823
201	0xbd41ca5b	-0.04731212
202	0xbdb33f3c	-0.087522954
203	0xbdacb0c3	-0.08432152
204	0x3d97b7bf	0.07408094
205	0xbb528360	-0.0032121763
206	0x3d276312	0.040865965
207	0xbd132424	-0.03592314
208	0x3cf8430c	0.030305408
209	0x3d91e539	0.07123799
210	0x3d00577a	0.031333424
211	0x3cba0640	0.022708058
212	0xba8cc380	-0.0010739416
213	0x3c9f4d40	0.019446015
214	0xbcbfbf10	-0.023406535
215	0x3c35cd48	0.011096306
216	0x3c379d68	0.011206962
217	0xbd83d843	-0.06437733
218	0x3d51d80a	0.05123142
219	0x3c91243c	0.017717473
220	0x3d37217a	0.04470966
221	0x3b93cc80	0.0045104623
222	0xbc9a80b8	-0.018860206
223	0x3d825859	0.06364507
224	0xbda24359	-0.07923002
225	0xbd74bd78	-0.059751004
226	0x3d801581	0.062541015
227	0xbc3689d8	-0.011141263
228	0xbc192dd8	-0.009349309
229	0xbdacb03a	-0.0843205
230	0x3cba50a8	0.022743538
231	0xbd437381	-0.047717575
232	0x3daef759	0.085432716
233	0xbd89acc4	-0.067224056
234	0x3d0813c2	0.033221968
235	0xbc59be60	-0.013290018
236	0x3d2abf36	0.04168626
237	0x3d92f09d	0.071747996
238	0xbd99a581	-0.075022705
239	0xbd5baf7e	-0.05363416
240	0xbc6a18f8	-0.01428818
241	0x3d32fd62	0.043698676
242	0x3da0e5f3	0.07856359
243	0xbcb4ced4	-0.02207128
244	0xbd4552d0	-0.04817468
245	0x3b86b080	0.004110396
246	0x3db40a41	0.08791018
247	0xbc4d9a98	-0.012549065
248	0x3d4e7e1e	0.050413243
249	0x3d8de807	0.06929021
250	0x3cb8f0d8	0.02257578
251	0xbd142da3	-0.036176335
252	0xbd6f9518	-0.058491796
253	0xbd08e62b	-0.03342263
254	0xbbc0fcf0	-0.0058895275
255	0xbd356ed4	-0.044295147

f.V.6.bias f4 [128]
0	0x3cb28bb4	0.021795131
1	0xbca6da10	-0.020367652
2	0xbd654c4c	-0.055980965
3	0xbd90d612	-0.07072081
4	0x3be60209	0.0070192856
5	0xbc8da34f	-0.017289786
6	0xbd561688	-0.05226758
7	0x3d80d3d1	0.06290401
8	0x3dad0753	0.084486626
9	0x3c4c2b1a	0.012461448
10	0x3e078f94	0.13238364
11	0x3d179e2c	0.03701608
12	0x3db5c93a	0.088762715
13	0x3dc6303c	0.09677169
14	0xbd3e407f	-0.046448227
15	0x3da9bac1	0.082875736
16	0xbd532289	-0.051546607
17	0x3d912e7b	0.070889436
18	0xbdc7d7c6	-0.097579524
19	0xbd279446	-0.04091289
20	0xbd67c87d	-0.056587685
21	0x3cb2b2de	0.021813806
22	0x3c259625	0.010106598
23	0xbc2dd195	-0.01060905
24	0x3cffd7f0	0.031230897
25	0x3d3f00a2	0.046631463
26	0x3d91ab0e	0.07112704
27	0xbb8f74ad	-0.0043779225
28	0xbcf7a71a	-0.030231047
29	0x3e18d44e	0.14924738
30	0xbc7e6348	-0.0155266
31	0x3c99c8cb	0.018772503
32	0x3d5cc5d1	0.05389959
33	0xbce8c300	-0.028413296
34	0x3cccd1c6	0.025002372
35	0xbd5e99ce	-0.0543459
36	0x3d54e69d	0.051977742
37	0xbc71515a	-0.014728868
38	0x3d4c464b	0.049871724
39	0xbd632d47	-0.0554631
40	0x3cc9dce1	0.024641456
41	0xbd2ba7bc	-0.04190801
42	0x3d83c4e3	0.064340375
43	0xbd5962ed	-0.05307286
44	0x3e039201	0.12848665
45	0x3bb63712	0.005560764
46	0xbd124d8c	-0.035718486
47	0x3e0933b7	0.13398634
48	0x3e0ed2f5	0.13947661
49	0x3d898e10	0.067165494
50	0x3d31144a	0.04323224
51	0x3da17c64	0.07885054
52	0x3d731583	0.059346687
53	0x3cfa662b	0.030566296
54	0xbd914a0a	-0.070942
55	0x3d1fc032	0.03900165
56	0xbd43101d	-0.04762279
57	0xbdac4ef5	-0.08413497
58	0xbd9d46f4	-0.07679549
59	0xbd1faa8b	-0.038981
60	0xbdb4da37	-0.08830684
61	0xbdae7431	-0.085182555
62	0xbbf6f610	-0.007536657
63	0xbcdefc5f	-0.02721995
64	0xbd93bc50	-0.07213652
65	0x3d97dcb8	0.07415146
66	0x3c1d3707	0.009595639
67	0xbd8530f7	-0.0650348
68	0xbd90d89f	-0.07072567
69	0x3e06a5d4	0.13149196
70	0x3c13d238	0.009022288
71	0xbcba990e	-0.02277806
72	0xbb4180aa	-0.0029526153
73	0x3d7e439f	0.062076207
74	0xbc647690	-0.013944283
75	0x3cdec5a2	0.027193848
76	0x3dcd2272	0.100163355
77	0xbdcf5e72	-0.10125436
78	0xbc281eb8	-0.01026123
79	0x3d5582d5	0.052126724
80	0xbc3d5b38	-0.011557393
81	0xbab1c774	-0.001356347
82	0x3ccfde5b	0.025374582
83	0xbc8cfa50	-0.017209202
84	0xbd13dffd	-0.036102284
85	0xbb91e960	-0.0044528693
86	0x3c47124b	0.0121503575
87	0xbdabd686	-0.083905265
88	0x3e05c4b0	0.13063312
89	0x3d9ca29b	0.07648202
90	0xbd1736e1	-0.03691757
91	0x3ddd28ed	0.107988216
92	0x3c19fa9e	0.009398131
93	0x3ce1097d	0.027470345
94	0xbc6dc560	-0.01451239
95	0xbddff346	-0.109350726
96	0x3d28ca10	0.041208327
97	0x3d3debcb	0.046367448
98	0x3da95975	0.08269016
99	0xbca8d3f0	-0.020608872
100	0x3dfd3899	0.12364311
101	0x3ba32189	0.004978363
102	0x3d449880	0.047996998
103	0xbcbbd930	-0.022930712
104	0xbd5f4bc0	-0.0545156
105	0x3d1fd7a1	0.039024
106	0x3d2c1964	0.042016402
107	0xbcfd40cd	-0.030914688
108	0xbd502525	-0.050816674
109	0xbd3c5cb3	-0.045986842
110	0x3d4360fd	0.047699917
111	0x3de33a11	0.1109506
112	0x3d49f599	0.049306486
113	0xbdad4ca4	-0.08461884
114	0xbd8766af	-0.06611382
115	0xbda1ba62	-0.07896878
116	0x3d46d8c5	0.04854657
117	0xbcc1c5c5	-0.023653874
118	0x3deb6699	0.11494178
119	0xbce2e784	-0.027698286
120	0x3de27114	0.11056724
121	0x3dfbc9c0	0.1229434
122	0xbc698518	-0.014252923
123	0x3ddb09ff	0.10695266
124	0xbd180e07	-0.037122753
125	0x3c8748b2	0.016514156
126	0xbd8abe51	-0.06774581
127	0x3dcdf49e	0.10056423

f.V.8.weight f4 [128, 128]
0	0x3c20dc45	0.009818141
1	0xbd525a9c	-0.051355943
2	0x3ce93dd0	0.028471857
3	0x3c64bfef	0.013961776
4	0xbd117dc9	-0.03552035
5	0x3d995ca1	0.07488371
6	0x3d8d3953	0.06895699
7	0x3d162cc1	0.036663774
8	0xbca9addb	-0.020712784
9	0x3b366941	0.0027833732
10	0xbd9c9f73	-0.076476
11	0xbd05e343	-0.032687437
12	0x3d470299	0.04858646
13	0x3d44817f	0.04797506
14	0xbd794cdd	-0.06086432
15	0xbd370139	-0.0446789
16	0xbd6cd761	-0.05782259
17	0xbd848bed	-0.06472001
18	0x3caf076a	0.02136584
19	0x3d2c14e0	0.042012095
20	0x3d43dc46	0.04781749
21	0x3d2991d1	0.041398827
22	0xbda82848	-0.08210808
23	0x3b9af887	0.004729334
24	0x3a06d616	0.00051435956
25	0x3dae1e98	0.08501929
26	0x3d1fd85e	0.039024703
27	0xbd8d655c	-0.069040984
28	0x3db0ccf1	0.086328395
29	0x3d8190f3	0.06326475
30	0x3d5b6151	0.053559605
31	0xbd7dee15	-0.06199463
32	0x3d1efe5c	0.038816795
33	0xbddc6b49	-0.107626505
34	0x3c171762	0.0092218835
35	0xbd535ae6	-0.05160036
36	0xbd8400f9	-0.06445498
37	0x3d573780	0.052543163
38	0x3d8ef5ed	0.069805
39	0x3dd04cb4	0.1017088
40	0xbd291f27	-0.041289475
41	0x3c9a7154	0.018852867
42	0xbcea80c3	-0.028625851
43	0x3d2114d6	0.03932651
44	0xbb36ca4f	-0.0027891581
45	0x3ce3e1e7	0.02781768
46	0x3cb00664	0.021487422
47	0x3d7601c5	0.06006028
48	0xbcceb483	-0.02523256
49	0x3d0d5214	0.034502104
50	0xbc001aaa	-0.007818857
51	0x3c2e9f5b	0.0106581105
52	0xbdb36da6	-0.08761148
53	0x3ac5a3dc	0.0015078741
54	0x3c2a0851	0.010377959
55	0xbd54aea0	-0.051924348
56	0x3d0eb8b4	0.034844115
57	0x3ca8d7b8	0.020610675
58	0xbd6c4212	-0.057680197
59	0x3cbb67b3	0.022876596
60	0x3d08fab0	0.0334422
61	0x3d042918	0.032265753
62	0xbd2155fc	-0.03938864
63	0x3d1198c2	0.03554607
64	0x3c9b7144	0.018974908
65	0xbd9f903d	-0.07791183
66	0xbd289802	-0.04116059
67	0xbb98bf87	-0.0046615037
68	0x3d22bec1	0.0397327
69	0x3d41c4ed	0.047306944
70	0x3a9a3b00	0.0011766851
71	0xbcfbfeaa	-0.030761082
72	0xbd96e24d	-0.07367382
73	0xbd36ec56	-0.04465898
74	0xbd71e43c	-0.059055552
75	0x3d43bfcf	0.047790345
76	0xbd853330	-0.06503904
77	0xbd036854	-0.032081917
78	0x3c821f74	0.015884139
79	0x3d6aa6b4	0.057287887
80	0x3d2f894b	0.042855542
81	0xbdc2dd7c	-0.09514901
82	0xbddb6b77	-0.10713857
83	0xbd26e083	-0.040741455
84	0xbda9380c	-0.08262643
85	0x3d7ba2ca	0.061434545
86	0x3d0e013a	0.03466914
87	0x3d6e705c	0.058212623
88	0x3c906908	0.017628208
89	0xbc132df4	-0.008983124
90	0xbd97d6f5	-0.07414047
91	0x3d657e45	0.056028623
92	0xbd375545	-0.044759054
93	0x3ca37793	0.019954478
94	0xbd8643d3	-0.06555905
95	0x3d2c9f48	0.04214409
96	0xbd8074b8	-0.06272262
97	0x3d0ae1c4	0.033906713
98	0x3dbbeabc	0.091756314
99	0xbd143c34	-0.036190227
100	0x3d755bc5	0.05990197
101	0x3c670702	0.014100792
102	0x3d356bb6	0.044292174
103	0xbd2f89e2	-0.042856105
104	0x3d62c27a	0.05536125
105	0x3d8f31d7	0.06991928
106	0x3c2b50b9	0.0104562575
107	0xbd7db93a	-0.061944224
108	0xbdab9eef	-0.083799236
109	0xbd48f338	-0.049060076
110	0x3d2070ad	0.039169956
111	0xbca1465c	-0.01968687
112	0xbc9cbea0	-0.019133866
113	0xbd66f8be	-0.056389563
114	0x3d74f01a	0.05979929
115	0x3d8fc32b	0.07019647
116	0x3d4891c7	0.04896715
117	0x3b8c7387	0.004286233
118	0xbd1b75f8	-0.0379543
119	0xbda84bad	-0.08217559
120	0x3da2c319	0.07947368
121	0x3d433a12	0.047662802
122	0xbd3def2f	-0.04637068
123	0xbda0bd03	-0.07848551
124	0x3d92c931	0.071672805
125	0xbd94bc5d	-0.0726249
126	0xbc33fc68	-0.010985471
127	0xbdb9b1f9	-0.09067149
128	0xbcc2b8ee	-0.023769822
129	0x3d35f48e	0.04442268
130	0x3cc4d52b	0.024027428
131	0xbdd11abb	-0.102101766
132	0x3c942f6f	0.018089024
133	0xbd9edf93	-0.07757487
134	0xbd6cea38	-0.057840556
135	0x3d52bcd3	0.051449608
136	0x3d654037	0.055969443
137	0xbd1f2480	-0.03885317
138	0x3ce05ea9	0.027388887
139	0xbdb51e33	-0.08843651
140	0x3d12b820	0.035820127
141	0xbcc97a2d	-0.02459439
142	0x3c9b60fa	0.01896714
143	0xbc2cb2d4	-0.010540683
144	0xbd2f2bbd	-0.04276632
145	0xbd9547b0	-0.07289064
146	0xbdf688b7	-0.12037795
147	0x3ca40bc0	0.020025134
148	0xbc8b5260	-0.017007053
149	0xbd0fe42e	-0.03512972
150	0xbda35302	-0.07974817
151	0x3cc5e2cc	0.024155997
152	0xbd0b5395	-0.034015257
153	0x3d886d2b	0.06661447
154	0x3cee1f95	0.029067794
155	0xbdc53f63	-0.09631231
156	0xbdafb755	-0.0857989
157	0xbd6e8236	-0.058229648
158	0x3d5f4fa7	0.05451932
159	0xbde3fc6b	-0.11132129
160	0x3d870e40	0.06594515
161	0x3d2863df	0.04111087
162	0x3d9df5e4	0.077129155
163	0xbddef2e7	-0.10886174
164	0xbd8e7a29	-0.06956894
165	0xbdb8609d	-0.090028025
166	0x3d69abf0	0.057048738
167	0x3cba69ad	0.022755468
168	0x3d29c20f	0.041444834
169	0x3c2938d8	0.010328494
170	0x3c9432a1	0.018090548
171	0xbc641658	-0.013921343
172	0x3d1aa9e0	0.03775966
173	0xbc9283bc	-0.017885081
174	0x3d82cfd1	0.06387294
175	0x3dc8fe63	0.098141454
176	0xbc64da50	-0.013968065
177	0xbd8b564a	-0.06803568
178	0x3d87b223	0.06625774
179	0x3c30f524	0.010800634
180	0x3d9451ff	0.07242202
181	0xbd847fe8	-0.06469709
182	0x3dacb57e	0.084330544
183	0xbd9f886f	-0.077896945
184	0xbb991680	-0.0046718717
185	0x3d9591cf	0.073032014
186	0x3d313eca	0.04327277
187	0xbd7da6a1	-0.061926488
188	0x3d9abb18	0.075552166
189	0xbc547d8e	-0.012969388
190	0xbd68a68b	-0.056799453
191	0xbcb74cdf	-0.022375522
192	0x3da9e6a5	0.08295945
193	0xbd8265cf	-0.06367075
194	0x3d53e259	0.051729534
195	0x3b9d0bd5	0.0047926703
196	0xbdce7574	-0.10080996
197	0x3d5750fe	0.052567475
198	0xbc022c50	-0.007945135
199	0x3ce0b2db	0.027429035
200	0x3d8ded09	0.069299765
201	0x3dd23122	0.102632776
202	0x3d32eb16	0.043681227
203	0x3d981160	0.07425189
204	0xbd4d3f8e	-0.05010944
205	0xbdec9e23	-0.115536
206	0xbd272fef	-0.040817197
207	0xbcbbb898	-0.02291517
208	0x3c0620df	0.008186548
209	0xbd856eda	-0.06515284
210	0xbc979409	-0.018503206
211	0x3c648358	0.01394733
212	0x3ca1d7e0	0.019756258
213	0x3bf5fa80	0.0075066686
214	0x3cdfd7da	0.027324606
215	0xbd86096c	-0.06544766
216	0xbce5a266	-0.02803154
217	0x3ca2d23f	0.019875644
218	0xbd838e60	-0.0642364
219	0x3ce7cd46	0.028296124
220	0x3cb14c32	0.021642778
221	0x3d92fc7c	0.07177064
222	0xbd41a13e	-0.047272913
223	0x3c00de33	0.007865476
224	0x3cad923b	0.021187892
225	0xbd6bac8d	-0.057537604
226	0xbd2366cb	-0.039892953
227	0xbd93b2f0	-0.07211864
228	0xbd7221a4	-0.059114113
229	0xbdf8f0d8	-0.12155312
230	0x3d913bd5	0.0709149
231	0xbd096b59	-0.03354964
232	0xbd42c95e	-0.04755532
233	0x3bf47675	0.0074604102
234	0x3af48bd3	0.0018657394
235	0xbd9070b8	-0.070527494
236	0xbd5b550e	-0.05354791
237	0x3ca2b336	0.019860845
238	0x3ce6ce6e	0.028174605
239	0xbc6497c3	-0.013952198
240	0xbd4f366e	-0.050589018
241	0x3d25aede	0.04044997
242	0xbd1b3901	-0.03789616
243	0xbd95fa97	-0.07323187
244	0x3beed456	0.007288496
245	0xbd2ba677	-0.0419068
246	0xbd68c339	-0.056826804
247	0xbda38b9d	-0.079856135
248	0x3aa1ee29	0.0012354302
249	0xbcae6080	-0.02128625
250	0xbbe937c6	-0.0071172444
251	0xbd98fc34	-0.07469979
252	0xbd358e56	-0.044325195
253	0xbd20e507	-0.039280917
254	0xbc0a52c0	-0.008442581
255	0x3b662b4f	0.0035121029
