models/deep_long.pth (torch, 478483 bytes, 44 tensors)

f.V.0.weight f4 [128, 2]
-0.020040631 0.56284446 0.70202184 -0.67939186 -0.27416155 -0.049993724 0.30595523 0.44580036
-0.10293627 -0.22059804 -0.37843284 0.5000538 -0.35169703 0.51600766 0.19111675 0.028360248
-0.30452064 -0.14035182 0.20733027 -0.6015403 -0.13885349 0.15115148 -0.2714073 -0.19578642
-0.23832764 -0.25119156 0.14022899 -0.10435064 -0.2641383 0.5530061 -0.16328004 0.18713246
0.5334135 -0.3968276 0.67231786 0.06427502 -0.47130927 -0.19137362 0.8050575 0.4850613
0.6613411 -0.060937524 -0.238132 0.049314685 0.1541608 -0.17910944 -0.1552021 0.17117386
-0.272827 -0.51000583 0.20284311 -0.3625511 -0.33978352 0.64442414 -0.48094895 -0.18000957
-0.210131 -0.36806896 -0.68663204 -0.4849292 -0.042298514 -0.63450646 -0.51086724 -0.36446404
-0.029255666 0.68704504 -0.63349766 0.614288 -0.1422196 0.42154503 -0.26808384 0.3683649
0.12727836 -0.5016807 0.02410619 0.174784 0.36052033 -0.40687153 0.5046862 0.27755645
0.39234856 -0.5799109 0.14509892 -0.53502494 0.067326106 0.12865719 0.12366663 0.5662814
-0.35566163 -0.5515591 0.51113194 0.52908367 -0.054667782 -0.45651853 -0.018086769 -0.14946583
-0.19887711 0.63440645 -0.5087081 0.49857634 -0.19818097 -0.0038119035 0.5269849 0.7979464
0.27496576 0.17248096 0.55069727 -0.04062508 -0.6821221 -0.3378297 0.29785547 -0.24786255
0.42388436 -0.010172105 -0.13494419 0.28426543 -0.54695994 0.1616557 0.029002845 0.054023564
0.40204117 0.17050101 0.20536695 0.2369738 0.52851886 -0.44238198 0.7167143 0.555737
-0.28461626 -0.29508448 -0.5916098 0.06574078 -0.62377995 -0.009618032 0.6533534 -0.43653473
0.32163098 -0.45180768 -0.13411473 0.5592849 -0.22487433 0.8466922 0.11186397 -0.40057927
-0.38018954 0.18939836 -0.19181745 -0.37151453 0.068046145 0.71793264 0.25888824 -0.34835643
-0.34454638 -0.53320473 0.6291737 0.64418983 -0.53137773 0.13390763 0.48746148 0.006313326
0.07613817 0.59987223 0.07686466 -0.17409927 0.41445455 -0.64652705 -0.7035298 -0.1066352
0.30742595 -0.517001 -0.07648593 0.12353605 -0.42874506 0.60766256 0.06982945 -0.7092438
-0.12937705 0.5094727 0.2275608 0.12814826 -0.31712565 -0.466223 -0.67047423 0.17354633
0.59823036 0.46660194 0.01113507 -0.38351086 0.11803882 0.1706416 -0.20692366 0.65805954
-0.34453866 -0.60399806 0.23626484 0.56787336 0.31308126 -0.36354586 0.15427099 -0.23657085
-0.6425854 -0.66045445 0.54603577 -0.3997653 -0.28179315 -0.012324512 0.30911896 0.635087
-0.36780062 -0.429816 -0.29000553 0.2796409 -0.43773523 0.049639132 -0.11404859 -0.16836424
0.098017074 -0.5582074 0.35196742 0.4640103 0.23661369 0.07654375 -0.14394192 0.07915826
0.07982665 0.3592369 -0.59592646 -0.5547281 0.5633936 -0.25517055 -0.5715723 0.14417021
0.5964929 0.008984489 -0.14788091 0.5474483 -0.5383637 -0.103021406 0.13079879 0.6187868
0.04956993 -0.2320715 0.4837816 -0.65558577 -0.4734932 0.4144767 0.01834534 0.64838445
0.11308601 -0.76575667 -0.3780367 -0.5638179 -0.5287443 -0.5461218 0.10940579 -0.55381626
00000000: 402c a4bc 9316 103f b4b7 333f a0ec 2dbf
00000010: e75e 8cbe 38c6 4cbd 2aa6 9c3e f23f e43e
00000020: 40d0 d2bd 74e4 61be f3c1 c1be 8703 003f
00000030: a211 b4be 1419 043f 1cb4 433e c053 e83c
00000040: 21ea 9bbe 63b8 0fbe 634e 543e 8cfe 19bf
00000050: 9c2f 0ebe 74c7 1a3e e6f5 8abe 3c7c 48be
00000060: 290c 74be 2e9c 80be 3098 0f3e cab5 d5bd
00000070: 233d 87be cf91 0d3f e232 27be a79f 3f3e
00000080: ca8d 083f fd2c cbbe 061d 2c3f 9fa2 833d
00000090: 734f f1be 72f7 43be 4018 4e3f f459 f83e
000000a0: a64d 293f a099 79bd e0d8 73be 32fe 493d
000000b0: 54dc 1d3e 7768 37be 4ded 1ebe 3348 2f3e
000000c0: fbaf 8bbe be8f 02bf 1bb6 4f3e 4ca0 b9be
000000d0: 1bf8 adbe fbf8 243f f13e f6be 6e54 38be
000000e0: 952c 57be 8973 bcbe 1ec7 2fbf a448 f8be
000000f0: 3541 2dbd 046f 22bf 32c8 02bf 089b babe
00000100: 94a9 efbc 2fe2 2f3f e72c 22bf fa41 1d3f
00000110: 04a2 11be c0d4 d73e 4942 89be 539a bc3e
00000120: 4255 023e 256e 00bf 587a c53c 94fa 323e
00000130: 1f96 b83e 7751 d0be 1d33 013f e11b 8e3e
00000140: e9e1 c83e 0a75 14bf d094 143e 65f7 08bf
00000150: 45e2 893d b6be 033e ee44 fd3d d1f7 103f
00000160: 4819 b6be fa32 0dbf 8bd9 023f 0772 073f
00000170: 53eb 5fbd ccbc e9be b42a 94bc 920d 19be
00000180: 71a6 4bbe 7668 223f b23a 02bf 6645 ff3e
00000190: f4ef 4abe 21d1 79bb 7be8 063f 3746 4c3f
000001a0: 50c8 8c3e d99e 303e 7ffa 0c3f 7c66 26bd
000001b0: 8e9f 2ebf 04f8 acbe 8380 983e aecf 7dbe
000001c0: 5f07 d93e e7a8 26bc cf2e 0abe 3d8b 913e
000001d0: 9105 0cbf 1289 253e 6097 ed3c d047 5d3d
000001e0: 57d8 cd3e d197 2e3e b74b 523e 43a9 723e
000001f0: 034d 073f e47f e2be 977a 373f c844 0e3f
00000200: 39b9 91be 5015 97be bd73 17bf 1aa3 863d
00000210: 0bb0 1fbf f394 1dbc 2b42 273f 7b81 dfbe
00000220: d1ac a43e 5653 e7be 5f55 09be 4c2d 0f3f
00000230: 7545 66be d2c0 583f f018 e53d ba18 cdbe
00000240: 34a8 c2be a5f1 413e cb6b 44be 2737 bebe
00000250: c75b 8b3d 6fca 373f 008d 843e c65b b2be
00000260: 6268 b0be 1b80 08bf 8711 213f a0e9 243f
00000270: 5f08 08bf 151f 093e 8d94 f93e 04e0 ce3b
00000280: 54ee 9b3d 3a91 193f 386b 9d3d 1447 32be
00000290: 6333 d43e cc82 25bf 871a 34bf 8e63 dabd
000002a0: ef66 9d3e 2d5a 04bf a8a4 9cbd 7800 fd3d
000002b0: 7984 dbbe c68f 1b3f be02 8f3d 0091 35bf
000002c0: 6b7b 04be ce6c 023f b305 693e 4c39 033e
000002d0: 4b5e a2be c8b4 eebe 33a4 2bbf 21b6 313e
000002e0: a025 193f 73e6 ee3e de6f 363c 895b c4be
000002f0: 56be f13d acbc 2e3e cce3 53be 9776 283f
00000300: 5f67 b0be 9e9f 1abf 69ef 713e 2660 113f
00000310: 304c a03e af22 babe 37f9 1d3e a13f 72be
00000320: 7a80 24bf 8b13 29bf 00c9 0b3f 0aae ccbe
00000330: 3147 90be c0ec 49bc d744 9e3e 1095 223f
00000340: 5d50 bcbe d810 dcbe 9b7b 94be 182d 8f3e
00000350: d51e e0be 6752 4b3d 4f92 e9bd ad67 2cbe
00000360: 2dbd c83d aee6 0ebf 1335 b43e c292 ed3e
00000370: dc4a 723e f8c2 9c3d 8365 13be ba1d a23d
00000380: 287c a33d e6ed b73e a38e 18bf a902 0ebf
00000390: 903a 103f b7a5 82be 9052 12bf 5ba1 133e
000003a0: c2b3 183f ae33 133c 186e 17be 9225 0c3f
000003b0: 34d2 09bf e3fc d2bd 1ef0 053e d068 1e3f
000003c0: d709 4b3d 27a4 6dbe 39b2 f73e 78d4 27bf
000003d0: b36d f2be 4a36 d43e f748 963c 86fc 253f
000003e0: a399 e73d a108 44bf 078e c1be 5f56 10bf
000003f0: c95b 07bf a3ce 0bbf 2510 e03d e7c6 0dbf

f.V.0.bias f4 [128]
-0.6786316 -0.21144536 0.54150206 -0.42370707 -0.7020674 -0.13210684 0.65467334 -0.5284038
0.44469094 -0.20139043 -0.62008804 -0.5062634 -0.45847297 0.7037486 -0.45483336 0.40146017
-0.1946292 0.63554806 0.37152013 -0.27207875 0.018493082 -0.18330067 0.40809533 0.09871552
0.5872827 0.6208912 -0.5198242 0.21031292 0.49313056 -0.6589641 0.37317336 0.52733546
-0.49202722 0.1897055 0.01807592 0.13062665 -0.179174 0.28363985 0.15575199 0.36217892
-0.11556959 0.37439713 0.735609 0.59830254 0.21675664 -0.27562305 0.22285339 0.25584826
0.085247666 -0.1979221 0.66221803 -0.31170875 -0.29274458 0.692149 0.22648725 0.1534299
0.6118348 0.2074659 0.4969299 -0.42490008 0.04148874 -0.38995677 0.4285228 -0.72835815
0.16293484 0.41903064 0.30069247 -0.5965262 0.14568326 0.20716235 -0.35748214 0.6005515
-0.4270012 0.099032715 -0.7238508 0.71790254 -0.17880045 -0.72606325 -0.4522097 -0.3640013
0.51906365 -0.3494937 0.70908433 0.25155556 0.72865516 -0.46882427 0.09187543 -0.38834494
-0.47061154 0.22193232 -0.1396776 -0.2561954 -0.2578609 0.16638118 0.22979593 -0.031863414
0.48969832 0.668231 0.17729533 -0.22473684 -0.6922094 -0.21713127 -0.4560213 0.17536546
-0.14979702 0.3088715 0.26629043 -0.21195984 -0.19245437 0.6109457 -0.6090708 0.15873122
-0.5149183 -0.27534685 0.37754914 0.617979 0.313971 -0.21121453 -0.56075907 0.36830413
0.020842623 -0.25359723 0.19502535 -0.14963168 -0.29540274 -0.18100554 -0.23509577 0.3358463
00000000: cdba 2dbf 2285 58be e19f 0a3f 22f0 d8be
00000010: b0ba 33bf 0447 07be ac98 273f 7945 07bf
00000020: 88ae e33e 4b39 4ebe 17be 1ebf 7a9a 01bf
00000030: f8bc eabe de28 343f ebdf e8be 308c cd3e
00000040: e14c 47be 47b3 223f e337 be3e e84d 8bbe
00000050: ce7e 973c 2cb3 3bbe dff1 d03e 5d2b ca3d
00000060: 2958 163f baf2 1e3f 3313 05bf 455c 573e
00000070: 9c7b fc3e dfb1 28bf 9410 bf3e 75ff 063f
00000080: feea fbbe 2942 423e f413 943c fec2 053e
00000090: 6479 37be 3e39 913e 737d 1f3e 846f b93e
000000a0: c0af ecbd fbb0 bf3e df50 3c3f 5b2a 193f
000000b0: 74f5 5d3e 771e 8dbe ae33 643e 8bfe 823e
000000c0: 5496 ae3d 17ac 4abe 1f87 293f 4a98 9fbe
000000d0: 9ee2 95be ad30 313f 46ec 673e ba1c 1d3e
000000e0: 35a1 1c3f f171 543e 996d fe3e 818c d9be
000000f0: 19f0 293d 6aa8 c7be 5767 db3e ae75 3abf
00000100: 64d8 263e 2f8b d63e 5df4 993e f1b5 18bf
00000110: fe2d 153e 5e22 543e e607 b7be bebd 193f
00000120: e79f dabe aad1 ca3d 494e 39bf 76c8 373f
00000130: 7717 37be 48df 39bf 0888 e7be 615e babe
00000140: 5be1 043f d7f0 b2be 8d86 353f e4cb 803e
00000150: 2589 3a3f bc09 f0be 2f29 bc3d 26d5 c6be
00000160: fff3 f0be 3a42 633e a507 0fbe 0b2c 83be
00000170: 5806 84be d45f 2a3e a04f 6b3e 3683 02bd
00000180: bdb9 fa3e 3011 2b3f e88c 353e 6a21 66be
00000190: a334 31bf a957 5ebe a07b e9be 0193 333e
000001a0: 6464 19be 6824 9e3e 3857 883e 000c 59be
000001b0: c212 45be f066 1c3f 10ec 1bbf 708a 223e
000001c0: b0d1 03bf 43fa 8cbe 1f4e c13e df33 1e3f
000001d0: cfc0 a03e 9f48 58be e88d 0fbf 5c92 bc3e
000001e0: 26be aa3c 7fd7 81be bab4 473e 0c39 19be
000001f0: 073f 97be 8459 39be f2bc 70be 0cf4 ab3e

f.V.2.weight f4 [128, 128]
-0.008886494 0.020642074 0.048767503 -0.04499254 -0.046390887 0.060780972 0.036172777 0.022014081
0.0350195 0.0919436 -0.011782281 0.04934646 -0.07856212 -0.048442617 -0.068103544 -0.08315181
-0.0021863836 -0.03801752 -0.055107106 0.013956213 -0.0029605262 -0.023132883 -0.058403924 0.087960124
0.06270862 -0.067798585 0.040016364 0.1283719 0.039837237 0.009534963 -0.011619669 -0.022118928
0.022170808 0.07339773 -0.02136682 -0.006127529 0.09581468 -0.10355278 -0.06713877 0.059276942
0.066178806 0.012679021 0.037230067 0.060714062 0.0037409444 0.10082893 -0.05900335 0.05338465
0.010062301 -0.0023564268 0.0116893295 0.05618457 0.044763166 0.022994127 0.024388386 -0.043307785
0.07069001 0.040694192 0.028071178 -0.07151553 0.02906769 0.021050513 0.0051692515 0.1131492
0.080568686 0.008465979 0.030172225 0.025234692 0.058125205 -0.0028461656 -0.05808341 -0.023186991
0.03338529 -0.05503378 -0.07149987 0.07472767 0.011647427 0.058742538 0.02906512 0.050473385
-0.07519847 0.019405887 0.07449472 0.041784808 0.09216924 0.05015757 0.03372323 0.1024666
0.05040517 0.046478342 0.06785341 0.040333997 0.02925648 -0.008450046 0.038657866 -0.028760884
0.0086563425 -0.06529038 0.0668876 0.08588488 -0.014956697 0.011934807 -0.0051157027 6.445845e-05
-0.011812416 -0.05890315 0.029320162 0.032189686 -0.023537135 0.057263147 -0.06375329 0.088160396
0.0047354624 0.03755408 0.009166013 -0.04520188 0.057146907 -0.05229619 -0.014899777 -0.07171868
-0.025528403 -0.049605686 -0.0011779225 -0.030978668 0.042958908 -0.09247351 0.026151843 -0.053865977
0.0812558 -0.06322482 0.023001581 -0.032476865 0.0013109222 0.043219216 -0.023085363 0.009167001
0.035499923 -4.4569373e-05 0.026768029 -0.026838291 -0.044967305 0.0646872 -0.07135762 -0.07298933
-0.05988145 -0.024023786 0.020346299 0.058768652 -0.03405633 -0.021541573 -0.012574442 -0.060277566
-0.08515109 -0.0642699 -0.020249814 -0.008510977 -0.068498716 0.032609455 0.06031034 -0.041125186
-0.00080651045 0.06480976 -0.04097333 0.05816219 0.012977667 0.07410366 0.081019126 0.049403213
-0.008276567 -0.03801549 -0.0018890351 0.0015617609 0.044211917 -0.06693956 0.027387045 -0.063022286
0.003298588 0.033372298 -0.054478005 0.03456682 0.054311566 -0.044827282 -0.00413052 -0.02166047
0.029541694 -0.07488111 -0.053643823 -0.02632337 0.023694865 -0.056647662 -0.07284394 0.059020467
-0.031195201 -0.019140698 0.022303037 0.05637359 0.063806765 0.06167326 -0.087971784 0.047953613
-0.06702458 0.071842395 -0.027505971 0.032038115 -0.04879038 -0.04532476 0.003207177 -0.03285014
0.0047329664 0.02725061 -0.048761416 -0.0032483116 -0.037654005 -0.06895409 0.07134787 0.058623783
0.021959782 0.04723998 -0.032495484 -0.08618466 -0.08726351 -0.032134455 -0.075726084 -0.08590136
0.08322386 -0.087722756 0.076849096 -0.011347711 -0.030558363 -0.05865638 0.086856775 -0.07794297
-0.03421007 -0.0137716755 -0.06636259 0.035514966 0.04742033 -0.0017692596 0.0051901117 -0.03202599
-0.046542734 -0.07584659 0.0032704473 -0.023997992 -0.04341417 0.038093306 -0.019436337 -0.01719775
0.04298877 -0.06873968 0.006971255 -0.057127934 -0.0022737607 0.026073128 -0.017235197 0.033196636
00000000: a898 11bc 9119 a93c 6fc0 473d 194a 38bd
00000010: 5f04 3ebd 78f5 783d e829 143d e056 b43c
00000020: 9b70 0f3d ed4c bc3d 780a 41bc 831f 4a3d
00000030: 2de5 a0bd c46b 46bd df79 8bbd 7f4b aabd
00000040: 6e49 0fbb 42b8 1bbd fdb7 61bd 9aa8 643c
00000050: 6305 42bb 2c81 bdbc f438 6fbd 7024 b43d
00000060: 616d 803d fcd9 8abd 33e8 233d ec73 033e
00000070: 5f2c 233d 8938 1c3c 6d60 3ebc c132 b5bc
00000080: 8e9f b53c 8d51 963d 7809 afbc 70c9 c8bb
00000090: 7d3a c43d 7b13 d4bd 0d80 89bd 61cc 723d
000000a0: c188 873d abbb 4f3c 8e7e 183d 4faf 783d
000000b0: a22a 753b 667f ce3d 7fad 71bd dda9 5a3d
000000c0: 59dc 243c 486e 1abb 9a84 3f3c cb21 663d
000000d0: 9559 373d 2e5e bc3c 27ca c73c 8163 31bd
000000e0: edc5 903d f4ae 263d 87f5 e53c bc76 92bd
000000f0: 5d1f ee3c 2072 ac3c d362 a93b c5ba e73d
00000100: 3201 a53d e4b4 0a3c be2b f73c fcb8 ce3c
00000110: b214 6e3d bc86 3abb dfe8 6dbd a5f2 bdbc
00000120: 04bf 083d 1a6b 61bd 866e 92bd d20a 993d
00000130: dad4 3e3c 049c 703d f919 ee3c 2ebd 4e3d
00000140: a801 9abd 18f9 9e3c b090 983d 8c26 2b3d
00000150: 3ac3 bc3d 0672 4d3d 5f21 0a3d 02da d13d
00000160: a775 4e3d 1360 3e3d bbf6 8a3d 4335 253d
00000170: 49ab ef3c 1072 0abc b657 1e3d f29b ebbc
00000180: 55d3 0d3c f6b6 85bd 5efc 883d 69e4 af3d
00000190: ef0c 75bc 358a 433c a0a1 a7bb de2d 8738
000001a0: dd88 41bc 6e44 71bd d630 f03c 55d9 033d
000001b0: f3d0 c0bc c38c 6a3d 1691 82bd 708d b43d
000001c0: f02b 9b3b 4fd2 193d 0c2d 163c 9b25 39bd
000001d0: e012 6a3d 8834 56bd 321e 74bc 3ee1 92bd
000001e0: f120 d1bc 552f 4bbd 8564 9aba fac6 fdbc
000001f0: aef5 2f3d c062 bdbd 643c d63c 92a2 5cbd
00000200: 7169 a63d 047c 81bd d06d bc3c 7606 05bd
00000210: 40d3 ab3a a206 313d 841d bdbc 3031 163c
00000220: 5e68 113d 00f0 3ab8 a048 db3c fadb dbbc
00000230: a32f 38bd b97a 843d f223 92bd 6e7b 95bd
00000240: 4046 75bd 88cd c4bc 48ad a63c 66b7 703d
00000250: a67e 0bbd f477 b0bc 0805 4ebc 9ce5 76bd
00000260: b263 aebd f09f 83bd f0e2 a5bc a071 0bbc
00000270: 0e49 8cbd 7e91 053d fa07 773d e272 28bd
00000280: 006c 53ba fbba 843d a7d3 27bd 7a3b 6e3d
00000290: 48a0 543c a9c3 973d 5bed a53d 065b 4a3d
000002a0: 709a 07bc 21b6 1bbd 8099 f7ba 00b4 cc3a
000002b0: 8e17 353d 9c17 89bd cc5a e03c d411 81bd
000002c0: 202d 583b 64b1 083d 5424 5fbd f095 0d3d
000002d0: ce75 5e3d d09c 37bd 5059 87bb 4c71 b1bc
000002e0: 6c01 f23c 445b 99bd a0b9 5bbd 1ca4 d7bc
000002f0: bc1b c23c 6107 68bd 342f 95bd 72bf 713d
00000300: 148d ffbc f4cc 9cbc dcb4 b63c fee7 663d
00000310: 1fad 823d 1a9d 7c3d 8d2a b4bd 026b 443d
00000320: 2f44 89bd 1b22 933d 3454 e1bc 663a 033d
00000330: 6cd8 47bd 75a6 39bd 802f 523b de8d 06bd
00000340: 0017 9b3b ac3c df3c 0dba 47bd a0e1 54bb
00000350: 163b 1abd cd37 8dbd d51e 923d 7e1f 703d
00000360: 00e5 b33c b67e 413d fc19 05bd 9581 b0bd
00000370: 36b7 b2bd 6b9f 03bd 4716 9bbd 0ded afbd
00000380: 4571 aa3d fda7 b3bd 0f63 9d3d c0eb 39bc
00000390: 8855 fabc ac41 70bd f7e1 b13d 90a0 9fbd
000003a0: dc1f 0cbd 98a2 61bc 1ce9 87bd 2478 113d
000003b0: d23b 423d 80e6 e7ba d011 aa3b af2d 03bd
000003c0: 98a3 3ebd 7555 9bbd 0055 563b 7097 c4bc
000003d0: 0fd3 31bd ba07 1c3d f438 9fbc 4ce2 8cbc
000003e0: fe14 303d 64c7 8cbd 206f e43b fbfe 69bd
000003f0: 6003 15bb 5097 d53c d430 8dbc 32f9 073d

f.V.2.bias f4 [128]
0.072554715 -0.08114597 0.08983972 0.0020340655 0.15609002 0.062406078 0.10858565 0.06775125
0.06690314 -0.14792606 -0.035750795 0.07166478 -0.053625498 0.04134457 0.057878144 -0.022316843
-0.013146013 -0.007780628 0.021117378 -0.028024172 0.0014852707 -0.010740246 0.18320884 0.023196783
0.07443265 -0.04626363 0.1308141 0.013608388 0.035464056 0.12993427 0.22657795 0.13714586
0.09321294 -0.05292081 0.10676833 -0.05463538 -0.058574125 0.029065087 0.05024095 0.008518504
-0.014053695 0.076828755 -0.0139618 0.15801753 0.10807429 0.154649 -0.014598333 0.12306483
0.097880565 -0.032093894 0.10738022 -0.0110887475 -0.027103283 0.030472767 0.049969595 0.022240758
-0.159662 0.21437657 0.087430984 -0.12855443 -0.11577686 0.07566484 0.07119065 -0.019288762
0.10459211 0.04442382 0.14810988 -0.027005402 0.1673547 0.02663096 -0.059776463 -0.042281274
0.08207837 0.111088485 0.077044524 0.047356572 0.17252943 -0.002459916 0.008284265 0.022253234
0.075204924 0.14927468 0.064116456 -0.020577505 -0.07895237 -0.031582695 -0.023641825 0.109156065
-0.06384919 -0.033049185 0.23221429 0.04583854 0.13391727 -0.017552378 0.06299263 0.07477387
-0.035327405 0.058561794 0.094406955 0.1619342 0.09476728 0.11105817 -0.0018135794 0.1297937
0.018843018 0.14020516 0.052339066 -0.086240634 -0.058199633 0.10067991 0.16669272 0.07868498
0.052052833 0.08587321 -0.10464243 0.18325749 0.044991966 0.030600276 -0.026843535 0.11671726
0.11374318 0.14425246 0.091033064 -0.05042274 -0.07289252 0.010786322 0.075627886 0.07984147
00000000: 9197 943d dc2f a6bd e3fd b73d f54d 053b
00000010: 10d6 1f3e 849d 7f3d 2762 de3d 2bc1 8a3d
00000020: 8304 893d ee79 17be 6d6f 12bd fcc4 923d
00000030: 69a6 5bbd ed58 293d a211 6d3d d0d1 b6bc
00000040: 6062 57bc a3f4 febb 5afe ac3c f392 e5bc
00000050: 6aad c23a dbf7 2fbc 199b 3b3e 2e07 be3c
00000060: 2570 983d ef7e 3dbd 22f4 053e b7f5 5e3c
00000070: c242 113d 7d0d 053e 0d04 683e f76f 0c3e
00000080: 6de6 be3d 7ec3 58bd 5ba9 da3d 59c9 5fbd
00000090: 6ceb 6fbd e819 ee3c 74c9 4d3d 3291 0b3c
000000a0: 7841 66bc 6558 9d3d 09c0 64bc 59cf 213e
000000b0: 0e56 dd3d 4f5c 1e3e d92d 6fbc 6a09 fc3d
000000c0: 9b75 c83d e374 03bd 29ea db3d 94ad 35bc
000000d0: b407 debc 06a2 f93c ebac 4c3d 4032 b63c
000000e0: 6f7e 23be 8885 5b3e 040f b33d c6a3 03be
000000f0: 6b1c edbd 2bf6 9a3d 67cc 913d 7703 9ebc
00000100: 6334 d63d c0f5 353d 1eaa 173e 6f3a ddbc
00000110: 085f 2b3e 2c29 da3c 2ad8 74bd 212f 2dbd
00000120: b418 a83d 5c82 e33d 85c9 9d3d f7f8 413d
00000130: 8eab 303e 8b36 21bb baba 073c 6a4c b63c
00000140: 0a05 9a3d 76db 183e 7d4f 833d 2892 a8bc
00000150: c8b1 a1bd db5c 01bd 80ac c1bc 378d df3d
00000160: 5dc3 82bd 955e 07bd 95c9 6d3e 31c1 3b3d
00000170: 9c21 093e 01ca 8fbc 4802 813d 0b23 993d
00000180: 78b3 10bd 7ede 6f3d 6f58 c13d 14d2 253e
00000190: 5915 c23d 7772 e33d a0b5 edba a4e8 043e
000001a0: ac5c 9a3c f191 0f3e 7d61 563d ee9e b0bd
000001b0: bd62 6ebd 4531 ce3d 7fb1 2a3e 9725 a13d
000001c0: 5a35 553d 4bde af3d c54e d6bd daa7 3b3e
000001d0: 7f49 383d 6ead fa3c f9e6 dbbc 7509 ef3d
000001e0: 2ff2 e83d ebb6 133e 8b6f ba3d 1388 4ebd
000001f0: ac48 95bd 1db9 303c cbe2 9a3d ed83 a33d

f.V.4.weight f4 [128, 128]
0.08580414 -0.005986549 0.07754841 -0.042963527 -0.019282445 0.01925861 0.08343779 0.022543214
0.058239095 0.06706878 0.012351334 -0.08523985 0.016838074 0.023465797 -0.07744924 0.0046992972
-0.07006298 -0.035601422 -0.00046537817 -0.009018049 0.070357434 -0.073586665 -0.08201522 0.06357948
0.008228473 -0.044795346 -0.03412684 0.08522447 0.03225988 -0.08233298 -0.0037941039 0.060515635
0.07574273 -0.015652642 -0.060417328 0.029524855 -0.01981476 -0.012681052 0.005800776 -0.07984875
0.01875338 -0.027538687 0.046783023 -0.06544048 0.060056858 0.06665503 0.024243362 -0.039197676
0.01792343 0.0673374 -0.066851735 0.07466989 0.022189125 -0.02222047 0.013832651 -0.083300926
0.011946797 -0.045810156 -0.08574813 -0.039924793 -0.0006579533 -0.086438105 0.059279315 -0.0504969
-0.044488885 0.030895695 0.024518222 0.050952025 -0.062935024 0.008382693 -0.046040922 0.056442834
0.04329043 0.081219904 0.000583604 0.04482212 -0.027619768 -0.0019487888 -0.07392142 0.015552871
0.086650975 0.02348096 -0.035974167 0.04958982 -0.035516284 0.07664595 0.059308343 0.08086979
0.009814002 0.0018156618 0.08237123 -0.06957813 0.0027534738 0.028871864 -0.08349572 -0.013093352
-0.07039995 0.014620081 0.07647791 -0.010900721 0.08533167 0.046581246 0.019579016 -0.07954401
0.06402772 -0.07844676 -0.043458775 -0.0011913031 -0.04729637 0.029692002 -0.007420711 -0.06951161
0.08256943 0.013774335 0.049685992 -0.07521531 0.05097211 -0.054519128 -0.05579799 -0.026842643
0.004464075 0.039214052 -0.082871206 0.017778993 0.064721964 0.056694187 0.02550055 0.029300496
-0.070448 -0.010506637 0.061888333 0.03351742 -0.06568864 0.04512166 -0.03741822 -0.049336143
-0.01597169 0.05252358 0.046798702 0.090117946 -0.048110753 -0.035407126 0.020454746 0.060163103
0.0065729753 0.06512911 -0.039318677 0.015626648 0.005262574 0.025269384 -0.0052669784 -0.046596
-0.0030383493 4.858274e-05 0.02848141 -0.053724412 0.07375623 -0.022932164 -0.026323901 0.07798553
-0.017106839 -0.019511148 0.057009738 -0.007987365 0.059910733 0.06488493 -0.016470082 -0.069066
0.017953396 0.04479207 -0.029236415 0.0660284 -0.08737861 0.049671218 0.055439856 0.011251727
0.040378246 0.0073808734 -0.015949534 -0.01199327 -0.01200759 -0.034735646 0.049755674 -0.014386006
0.07060597 0.09146925 -0.09873554 0.07937038 -0.0729529 0.028681016 -0.043434065 0.048360117
-0.040990468 0.007843229 0.061402213 0.029489288 -0.011537342 -0.082390055 -0.085832216 -0.027797375
-0.00011544571 0.033149555 0.031089759 0.11275009 0.07076729 -0.094058484 0.008682823 -0.037199084
0.045536738 0.012358005 0.025355265 -0.04554816 0.043560117 -0.10191975 0.0010366444 0.053714287
-0.0051789433 0.08422579 -0.11792975 0.024747686 -0.0072050714 -0.0015416901 -0.026169218 0.023050632
0.034468375 -0.00041570514 0.102994785 -0.08800623 -0.017359769 -0.067300856 0.097989924 0.048333462
-0.098904796 -0.008140697 -0.02752263 -0.048996698 -0.0100362 0.07589163 0.0129886335 -0.043990165
0.05970625 -0.07895805 -0.080947995 -0.03832352 -0.02118531 0.044303846 0.097956374 0.08398886
0.059416145 -0.008353618 -0.050580043 -0.022034587 0.002129145 -0.020788722 -0.05449464 0.020198518
00000000: 15ba af3d d02a c4bb b3d1 9e3d 86fa 2fbd
00000010: 38f6 9dbc 3cc4 9d3c 6fe1 aa3d 8cac b83c
00000020: 1e8c 6e3d 5b5b 893d 405d 4a3c 3b92 aebd
00000030: 00f0 893c 583b c03c b59d 9ebd 90fc 993b
00000040: 2e7d 8fbd ccd2 11bd 00fe f3b9 70c0 13bc
00000050: 8f17 903d 9bb4 96bd 98f7 a7bd f535 823d
00000060: b8d0 063c 537b 37bd 96c8 0bbd 2b8a ae3d
00000070: f022 043d 329e a8bd 80a6 78bb 3edf 773d
00000080: 011f 9b3d f839 80bc 2978 77bd 1cde f13c
00000090: 9052 a2bc 30c4 4fbc 7014 be3b be87 a3bd
000000a0: b0a0 993c d098 e1bc 8e9f 3f3d a905 86bd
000000b0: 2efe 753d 6f82 883d 049a c63c be8d 20bd
000000c0: 28d4 923c 31e8 893d 90e9 88bd 87ec 983d
000000d0: f8c5 b53c b407 b6bc 58a2 623c ad99 aabd
000000e0: 80bc 433c 6ea3 3bbd b79c afbd 2e88 23bd
000000f0: 807a 2cba 7606 b1bd dece 723d d6d5 4ebd
00000100: fa39 36bd f818 fd3c 70da c83c 12b3 503d
00000110: 14e4 80bd 9057 093c 6895 3cbd 9a30 673d
00000120: 4e51 313d 9f56 a63d 00fd 183a 6697 373d
00000130: da42 e2bc 806e ffba 1d64 97bd 78d1 7e3c
00000140: 1176 b13d 245b c03c a659 13bd b21e 4b3d
00000150: 8679 11bd 8df8 9c3d 4eed 723d 0f9f a53d
00000160: e8ca 203c 80fb ed3a 3fb2 a83d fb7e 8ebd
00000170: a073 343b b084 ec3c ceff aabd 8085 56bc
00000180: d92d 90bd 1089 6f3c 73a0 9c3d f098 32bc
00000190: 5fc2 ae3d facb 3e3d 2c64 a03c f8e7 a2bd
000001a0: f720 833d b2a8 a0bd d401 32bd 8025 9cba
000001b0: d7b9 41bd a43c f33c 7029 f3bb 1a5c 8ebd
000001c0: 291a a93d c0ad 613c 8a83 4b3d 7c0a 9abd
000001d0: 22c8 503d 734f 5fbd 6f8c 64bd 1ae5 dbbc
000001e0: 6047 923b ea9e 203d 61b8 a9bd 40a5 913c
000001f0: f38c 843d 2a38 683d 88e6 d03c 9807 f03c
00000200: 0b47 90bd 0824 2cbc 9f7e 7d3d 9049 093d
00000210: c487 86bd 7dd1 383d d943 19bd b214 4abd
00000220: 10d7 82bc f722 573d ffaf 3f3d c28f b83d
00000230: c80f 45bd 1007 11bd b690 a73c 966d 763d
00000240: 1d62 d73b 6962 853d 9f0c 21bd 7503 803c
00000250: ac71 ac3b bd01 cf3c 9e96 acbb 73db 3ebd
00000260: 0b1f 47bb 52c5 4b38 d951 e93c 210e 5cbd
00000270: 820d 973d 3cdc bbbc 39a5 d7bc e1b6 9f3d
00000280: a423 8cbc d8d5 9fbc 0b83 693d 70dd 02bc
00000290: f564 753d 64e2 843d 44ec 86bc 7a72 8dbd
000002a0: 0013 933c e477 373d 3581 efbc e639 873d
000002b0: 8ff3 b2bd 0c74 4b3d e714 633d 2a59 383c
000002c0: a963 253d 41db f13b 99a8 82bc 6c7f 44bc
000002d0: 7cbb 44bc f746 0ebd 9bcc 4b3d 48b3 6bbc
000002e0: dd99 903d 3b54 bb3d dc35 cabd f08c a23d
000002f0: 5468 95bd 73f4 ea3c ebe7 31bd 4215 463d
00000300: 9fe5 27bd e380 003c e380 7b3d 8593 f13c
00000310: 1f07 3dbc 1ebc a8bd cdc8 afbd 52b7 e3bc
00000320: 721b f2b8 d4c7 073d f3af fe3c 85e9 e63d
00000330: 71ee 903d bca1 c0bd 6642 0e3c 115e 18bd
00000340: bb84 3a3d 3b79 4a3c d8b5 cf3c b590 3abd
00000350: 186c 323d 4dbb d0bd 04e0 873a 8303 5c3d
00000360: 20b4 a9bb 927e ac3d 2785 f1bd a9bb ca3c
00000370: 8518 ecbb 8912 caba d460 d6bc aed4 bc3c
00000380: b62e 0d3d 00f3 d9b9 eeee d23d 9c3c b4bd
00000390: 1336 8ebc 08d5 89bd f1ae c83d 4ff9 453d
000003a0: 998e cabd 8f60 05bc 2377 e1bc c3b0 48bd
000003b0: e06e 24bc 126d 9b3d 47ce 543c 082f 34bd
000003c0: 8a8e 743d c2b4 a1bd 10c8 a5bd 20f9 1cbd
000003d0: d18c adbc f377 353d 5a9d c83d 5a02 ac3d
000003e0: 585e 733d 9ddd 08bc 052d 4fbd e181 b4bc
000003f0: 2089 0b3b 1c4d aabc c635 5fbd 5d77 a53c

f.V.4.bias f4 [128]
-0.02334477 -0.01130998 0.077157386 -0.042506013 -0.03580206 0.10675888 0.028689433 0.049984887
0.050775487 -0.043317225 0.13523857 -0.08661555 0.0041277185 0.030663816 0.017194353 0.14448284
-0.058790494 0.013819865 0.075696826 0.22106494 0.061281923 -0.06718317 -0.06916036 0.0062960135
0.04165397 -0.0004360237 0.07917062 0.02431195 0.0016179717 -0.019805115 0.14751619 0.08117998
-0.059766043 -0.050960258 0.029773775 0.059624963 -0.027896786 0.15144846 0.008874546 0.061914247
0.076772876 -0.051242612 0.008614717 -0.06911376 0.059394266 0.064062595 -0.04880463 -0.009493681
0.17767012 0.04521223 -0.010777696 -0.07272545 0.054783057 -0.089764714 -0.08127174 -0.052538637
-0.058221653 0.047989964 0.06384784 0.03205816 0.112765945 0.028603759 -0.004969703 -0.024039272
-0.09614838 0.035055574 -0.019852526 0.052427102 0.0071171 0.03509569 0.10660345 -0.064445645
0.12378699 0.09322459 -0.07449053 -0.13764052 0.05748645 -0.037615497 0.08767019 0.040528975
-0.048089113 -0.0374678 -0.0076993494 0.054001715 -0.0732934 0.09431786 -0.019562904 0.0044107046
-0.10062183 0.0043409723 0.17992935 -0.03242439 0.089069225 0.131196 0.088751785 -0.021832447
-0.056044713 -0.021477144 -0.037406098 -0.028483126 0.00057585514 0.06610466 0.14251575 -0.08315182
-0.06334665 0.009369798 -0.0492432 0.026111191 -0.032958265 0.00965289 0.003033916 -0.0005568117
-0.03196287 0.044737235 -0.025681332 0.10817459 0.078002736 0.028410409 -0.058071077 0.05819261
0.08114632 -0.0522913 0.0018984221 -0.02327454 -0.046704207 0.07609268 0.03221069 0.046344414
00000000: 883d bfbc 7f4d 39bc b104 9e3d c91a 2ebd
00000010: 2ea5 12bd 66a4 da3d 1a06 eb3c f4bc 4c3d
00000020: f5f9 4f3d 676d 31bd fb7b 0a3e 7e63 b1bd
00000030: d041 873b af32 fb3c 2cdb 8c3c 4ff3 133e
00000040: 4dce 70bd b76c 623c f006 9b3d d95e 623e
00000050: c102 7b3d 5497 89bd f2a3 8dbd ca4e ce3b
00000060: 5a9d 2a3d 1c9a e4b9 3524 a23d db29 c73c
00000070: 1f12 d43a 563e a2bc 7c0e 173e b041 a63d
00000080: 3dcd 74bd b4bb 50bd 22e8 f33c 4e39 743d
00000090: cd87 e4bc 4e15 1b3e 8b66 113c cb99 7d3d
000000a0: 193b 9d3d c6e3 51bd be24 0d3c 848b 8dbd
000000b0: 6747 733d 4033 833d 5de7 47bd 628b 1bbc
000000c0: 28ef 353e 7630 393d ef94 30bc 15f1 94bd
000000d0: 3364 603d 90d6 b7bd cc71 a6bd c132 57bd
000000e0: d479 6ebd 2091 443d a8c2 823d 6b4f 033d
000000f0: d5f1 e63d 6e52 ea3c e4d8 a2bb 02ee c4bc
00000100: 71e9 c4bd 6f96 0f3d c4a1 a2bc cdbd 563d
00000110: 9036 e93b 80c0 0f3d e952 da3d 14fc 83bd
00000120: 0984 fd3d 89ec be3d 7e8e 98bd a3f1 0cbe
00000130: e976 6b3d b512 1abd 6e8c b33d b601 263d
00000140: 17f9 44bd d677 19bd d34a fcbb e730 5d3d
00000150: da1a 96bd b929 c13d 6242 a0bc ac87 903b
00000160: d112 cebd b73e 8e3b 663f 383e 70cf 04bd
00000170: ed69 b63d 3f58 063e 7fc3 b53d f6d9 b2bc
00000180: 248f 65bd d6f0 afbc 2337 19bd 7255 e9bc
00000190: fcf4 163a e161 873d a6ef 113e 804b aabd
000001a0: e3bb 81bd c883 193c 3db3 49bd 23e7 d53c
000001b0: 3fff 06bd 2827 1e3c aad4 463b 00f7 11ba
000001c0: 80eb 02bd 643e 373d a861 d2bc a48a dd3d
000001d0: e6bf 9f3d f2bc e83c f0db 6dbd 605b 6e3d
000001e0: 0b30 a63d 672f 56bd 7ad4 f83a 40aa bebc
000001f0: e94c 3fbd 7bd6 9b3d 5bef 033d a4d3 3d3d

f.V.6.weight f4 [128, 128]
0.05657623 0.061345436 0.009401762 0.055733196 0.005500581 0.063191384 0.017650528 0.063523225
-0.05677458 0.07799276 -0.0685989 0.034943707 -0.056949347 -0.098871306 0.086095266 0.020492738
0.0020762014 0.122901276 0.0115761 -0.025607497 -0.031830348 0.08459171 0.060563758 0.028097006
0.009000454 0.043221954 -0.005795007 -0.059127633 0.07808286 -0.018138774 0.03495089 -0.0075429366
0.056810193 0.07600958 -0.0100189755 -0.086029135 -0.062100977 0.016917376 0.06590807 0.0803127
-0.013088324 -0.024147518 0.0833597 -0.07447271 0.04055496 -0.0031972728 -0.066579364 0.10598215
-0.091231346 0.077990375 0.05427185 0.03010989 -0.038750183 -0.029049627 -0.08159658 -0.02918312
-0.003131194 0.06272472 -0.072202764 0.02730835 0.02780786 0.033458777 0.088376924 -0.05334112
-0.050894085 -0.079918295 0.023410045 0.09695807 0.0467061 0.06853994 -0.04575607 0.016997315
-0.061664123 0.045585193 -0.07159717 -0.029628795 -0.029933073 0.00091621786 0.056467116 -0.0614628
0.029933592 0.035493925 -0.052335028 0.03620348 0.05211725 -0.08036913 -0.0052766036 -0.040365506
-0.06662032 -0.008352321 -0.09018739 -0.057938658 -0.016552232 0.012548254 0.036334243 0.018248538
-0.0045181215 -0.036642127 0.11028111 -0.051321473 0.05455499 -0.07005086 0.0011571306 -0.030086806
0.04507234 0.04535082 0.06726162 -0.081735715 0.013470605 0.07027375 0.02164319 -0.0039989427
-0.03890169 0.03999865 -0.098051585 0.0656293 -0.017342573 -0.00097451557 0.005317889 0.02213577
-0.05573875 0.0037878752 0.039803293 -0.04031521 0.08258041 -0.014876373 -0.044963825 -0.050829444
0.07012964 -0.105978034 -0.078796275 -0.0043707937 0.047775984 0.04754716 -0.095513836 0.06175987
0.020079104 -0.027552228 0.056591652 0.079094835 0.07250094 0.024312463 -0.08168841 -0.06328778
-0.033198837 -0.05870625 0.035506908 0.037263557 -0.07220826 0.0069949403 -0.05925731 -0.014372494
-0.057473667 -0.003532299 -0.016045813 -0.010986438 0.027269585 -0.08205716 -0.030969754 0.041538697
0.055161513 -0.050718233 0.011847265 -0.06278647 -0.09693385 0.054148454 0.03646777 0.06659
0.10662156 0.07719346 0.010191624 0.08541247 0.07216679 -0.030448979 0.06837779 0.012361228
0.029115567 0.061530955 -0.041827563 0.0164539 -0.047818087 0.057036392 -0.008938581 -0.066590205
-0.0036219303 0.08241907 0.02982197 -0.11076247 -0.07946737 -0.06276608 0.0530619 -0.020995555
-0.04350407 -0.039779328 0.031179614 0.03183008 -0.080381446 -0.003311023 0.03797169 0.03388884
0.030954713 0.046579793 0.08530665 0.008445962 0.031202765 -0.065997355 -0.085671574 -0.05106437
-0.07121582 0.0044089183 -0.07279234 0.028593352 -0.072603956 -0.006093908 -0.0013276611 -0.056825396
-0.025388837 0.009229999 -0.08735208 -0.003943056 -0.054627508 0.079358615 -0.0045300075 -0.0066765025
-0.0014716446 -0.077828676 -0.053284563 0.05153691 -0.10615552 0.041560497 0.036455903 0.014226541
-0.012123607 -0.010688109 0.04317349 -0.07181758 0.07297296 0.059578545 0.013962926 0.011316173
0.057482332 0.0522313 0.0035141334 -0.09284808 -0.019977987 -0.053716864 -0.020194314 0.041027863
-0.03537947 0.03564848 0.01846194 -0.0691143 -0.07281956 -0.031064082 0.0046461523 0.0045965193
00000000: 7abc 673d 5a45 7b3d d909 1a3c 7e48 643d
00000010: 383e b43b 7c6a 813d d797 903c 7718 823d
00000020: 768c 68bd abba 9f3d 957d 8cbd 2221 0f3d
00000030: b843 69bd 0a7d cabd b752 b03d 63e0 a73c
00000040: e110 083b aab3 fb3d afa9 3d3c d0c6 d1bc
00000050: 8a60 02bd 6b3e ad3d b411 783d b12b e63c
00000060: a476 133c 8109 313d 0be4 bdbb d12f 72bd
00000070: e8e9 9f3d c497 94bc aa28 0f3d bd2a f7bb
00000080: ceb1 683d e9aa 9b3d a126 24bc 0b30 b0bd
00000090: 985d 7ebd 4f96 8a3c cffa 863d fc7a a43d
000000a0: 6970 56bc 04d1 c5bc 7eb8 aa3d 2685 98bd
000000b0: f51c 263d 5689 51bb c35a 88bd 2b0d d93d
000000c0: 80d7 babd 6bb9 9f3d 294c 5e3d 04a9 f63c
000000d0: 83b8 1ebd 7cf9 edbc 1c1c a7bd 7011 efbc
000000e0: b834 4dbb d175 803d 0bdf 93bd c3b5 df3c
000000f0: 4fcd e33c 120c 093d f6fe b43d 387c 5abd
00000100: 5176 50bd 34ac a3bd 6cc6 bf3c f491 c63d
00000110: e54e 3f3d ab5e 8c3d b86a 3bbd f43d 8b3c
00000120: 8593 7cbd 8ab7 3a3d 89a1 92bd 16b8 f2bc
00000130: 3436 f5bc 572e 703a 104a 673d 6bc0 7bbd
00000140: 4b37 f53c 1462 113d 415d 56bd 1a4a 143d
00000150: e678 553d 9298 a4bd 5ce7 acbb 4d56 25bd
00000160: 3c70 88bd 2cd8 08bc 2bb4 b8bd 1651 6dbd
00000170: 8c98 87bc 3197 4d3c 37d3 143d f57d 953c
00000180: c00c 94bb 0e16 16bd 10db e13d 7736 52bd
00000190: 0e75 5f3d d376 8fbd dcaa 973a 9b78 f6bc
000001a0: c69d 383d c8c1 393d 76c0 893d 0e65 a7bd
000001b0: d0b3 5c3c afeb 8f3d 0f4d b13c 9009 83bb
000001c0: 6157 1fbd a0d5 233d 45cf c8bd a868 863d
000001d0: 0312 8ebc a276 7fba b041 ae3b 1356 b53c
000001e0: 514e 64bd 003e 783b c708 233d 9021 25bd
000001f0: eb1f a93d 08bc 73bc fd2b 38bd 8932 50bd
00000200: 21a0 8f3d 030b d9bd f15f a1bd e038 8fbb
00000210: c0b0 433d d0c0 423d c29c c3bd ebf7 7c3d
00000220: ef7c a43c 36b5 e1bc a6cc 673d 79fc a13d
00000230: 5f7b 943d ee2a c73c 414c a7bd 069d 81bd
00000240: 81fb 07bd f775 70bd b16f 113d aca1 183d
00000250: ede1 93bd d035 e53b cbb7 72bd 9c7a 6bbc
00000260: 8269 6bbd 257e 67bb 8272 83bc 7600 34bc
00000270: 7764 df3c 960d a8bd 48b4 fdbc 7b24 2a3d
00000280: 0af1 613d ecbd 4fbd 081b 423c 3196 80bd
00000290: 4185 c6bd c5ca 5d3d 3a5f 153d 5760 883d
000002a0: 685c da3d 9b17 9e3d c5fa 263c bcec ae3d
000002b0: 2fcc 933d 2370 f9bc a809 8c3d bf86 4a3c
000002c0: c583 ee3c e207 7c3d 6153 2bbd 54ca 863c
000002d0: e6dc 43bd fe9e 693d 2073 12bc 7260 88bd
000002e0: e85d 6dbb 54cb a83d 344d f43c 6fd7 e2bd
000002f0: cabf a2bd 818b 80bd 6f57 593d dffe abbc
00000300: 5331 32bd a6ef 22bd 646c ff3c 4260 023d
00000310: 079f a4bd c0fd 58bb 3488 1b3d 06cf 0a3d
00000320: bd94 fd3c 74ca 3e3d 41b5 ae3d ef60 0a3c
00000330: f19c ff3c 9f29 87bd 9474 afbd df28 51bd
00000340: 9ad9 91bd b078 903b 2614 95bd 9b3c ea3c
00000350: 62b1 94bd 68af c7bb ea04 aeba bfc1 68bd
00000360: 40fc cfbc 6c39 173c a6e5 b2bd c034 81bb
00000370: 18c1 5fbd c586 a23d 7570 94bb 90c6 dabb
00000380: 33e4 c0ba a464 9fbd ea40 5abd 5e18 533d
00000390: 1168 d9bd 573b 2a3d c952 153d 7016 693c
000003a0: 18a2 46bc 2e1d 2fbc afd6 303d 1815 93bd
000003b0: d972 953d a208 743d c2c4 643c 7867 393c
000003c0: 9872 6b3d 7df0 553d 604d 663b 2227 bebd
000003d0: e0a8 a3bc 3706 5cbd 8c6e a5bc d50c 283d
000003e0: 10ea 10bd 2404 123d 7f3d 973c cc8b 8dbd
000003f0: 6c22 95bd 1a7a febc c03e 983b 669e 963b

f.V.6.bias f4 [128]
0.072155885 -0.024581762 0.04290645 -0.086547986 0.046610415 0.1404658 0.028577412 -0.03223433
0.0069692177 0.1094457 0.006775856 0.023256911 -0.066327855 -0.072884835 -0.0040318375 0.073108464
-0.04435355 -0.0200696 0.045979492 0.0066767186 0.045726024 0.071693145 -0.040920064 0.07612772
-0.061482154 -0.029945266 -0.008387764 -0.014194523 -0.005176126 -0.029049803 0.012826854 0.041442074
-0.009818912 -0.03272969 0.07392046 0.0235289 0.12773359 0.03993847 -0.07307426 0.11468615
-0.03400747 0.042868093 0.012507163 0.09065023 -0.016610531 0.105607495 0.05318068 0.015538125
-0.012262615 0.0141931735 -0.069269076 -0.029301621 0.022724569 -0.036464866 0.16973083 -0.056495
0.082195036 0.107202165 0.11184975 0.088906765 -0.08452375 0.08720285 -0.06936928 -0.010493532
-0.002733385 -0.07616634 -0.011145252 -0.014657673 -0.04397349 -0.0126128625 0.007489019 0.03891102
0.010775556 -0.0035627184 0.12806253 -0.018564325 -0.059073348 0.0019694343 0.12219866 0.012824327
0.10298107 -0.05640128 0.09000325 0.031559765 -0.017146297 -0.058712 0.0953852 -0.058547113
-0.045499906 -0.049423754 -0.0937031 0.11051126 -0.0015212976 0.008192842 0.11447588 -0.06772518
0.0024141297 0.030317558 -0.06428039 -0.034408335 -0.06679806 0.05382963 0.007969449 -0.085491985
0.0056601088 0.034140773 -0.073557384 0.046143852 -0.014031072 -0.024230568 0.06721469 -0.07007602
0.05528356 -0.013902293 0.048720937 0.06199344 0.013161715 0.05355729 -0.040589184 -0.046759725
0.016065974 0.14739114 0.06280295 0.0014049758 -0.048825238 -0.08760908 0.083043836 -0.08232437
00000000: 77c6 933d b15f c9bc acbe 2f3d 1240 b1bd
00000010: 90ea 3e3d 44d6 0f3e 2d1b ea3c 2508 04bd
00000020: 095e e43b 1125 e03d 0008 de3b 4785 be3c
00000030: e6d6 87bd a544 95bd 811d 84bb e4b9 953d
00000040: 11ac 35bd 0069 a4bc fe54 3c3d 60c8 da3b
00000050: 364b 3b3d dbd3 923d cc9b 27bd dae8 9b3d
00000060: b6d4 7bbd c64f f5bc d56c 09bc 2590 68bc
00000070: 7e9c a9bb daf9 edbc ba27 523c 2abf 293d
00000080: 80df 20bc 910f 06bd 9c63 973d aebf c03c
00000090: 98cc 023e 8596 233d f5a7 95bd 92e0 ea3d
000000a0: 6b4b 0bbd 7496 2f3d d8ea 4c3c d4a6 b93d
000000b0: cf12 88bc be48 d83d fcd3 593d 9f93 7e3c
000000c0: 23e9 48bc 7c8a 683c f2dc 8dbd f409 f0bc
000000d0: e028 ba3c 2f5c 15bd ebcd 2d3e 4d67 67bd
000000e0: df55 a83d cf8c db3d 7b11 e53d c014 b63d
000000f0: ca1a adbd 6897 b23d 7b11 8ebd 10ed 2bbc
00000100: 9722 33bb 19fd 9bbd 939a 36bc bd26 70bc
00000110: 8c1d 34bd 2ea6 4ebc 7266 f53b 2961 1f3d
00000120: f58b 303c 7f7c 69bb d322 033e 3614 98bc
00000130: e5f6 71bd a011 013b 4b43 fa3d 201d 523c
00000140: bde7 d23d 0705 67bd a053 b83d d044 013d
00000150: 6476 8cbc fe7b 70bd 5159 c33d 19cf 6fbd
00000160: 1c5e 3abd 9070 4abd 69e7 bfbd ba53 e23d
00000170: 4766 c7ba 453b 063c 5572 ea3d 80b3 8abd
00000180: 6036 1e3b 875c f83c 70a5 83bd c1ef 0cbd
00000190: 6ccd 88bd 757c 5c3d 4b92 023c 6c16 afbd
000001a0: 6f78 b93b 32d7 0b3d 41a5 96bd 5601 3d3d
000001b0: 95e2 65bc 2f7f c6bc dba7 893d 0484 8fbd
000001c0: 0471 623d 71c6 63bc 9b8f 473d d5ec 7d3d
000001d0: 3ca4 573c e45e 5b3d d840 26bd 2087 3fbd
000001e0: ca9c 833c b4ed 163e d59e 803d 2a27 b83a
000001f0: f9fc 47bd 646c b3bd e312 aa3d ae99 a8bd

f.V.8.weight f4 [128, 128]
0.038570475 -0.026969163 0.013624743 -0.011092946 0.01637657 0.05145553 -0.025659546 0.04110434
-0.05946834 0.08002661 -0.038371135 -0.03689924 -0.020464458 -0.0878995 -0.020804338 -0.10307231
0.010222461 0.030917622 0.055691693 -0.03729343 -0.034429673 0.079652816 -0.030743312 -0.019283656
-0.015235325 0.005758571 0.06294499 0.023401208 0.05814282 0.024981247 0.02618284 -0.018212028
-0.043657 0.09785712 0.065615974 0.05217659 0.06573459 -0.091190696 0.03643755 0.07980828
-0.0052844957 0.06681135 -0.045020726 0.03016337 -0.09304639 -0.036046527 -0.007926783 0.07935084
-0.02789676 0.01260329 0.06500939 -0.013312484 -0.070114985 -0.0085022375 -0.060666323 -0.050067194
0.02386757 0.028301436 -0.06941174 0.05167018 -0.017645977 0.076266944 -0.012929107 -0.023703204
-0.053043947 -0.010395266 0.031915616 -0.055928625 0.066254295 0.07678642 -0.019800339 0.034079123
0.09387655 -0.035908118 -0.018650962 0.054061268 -0.06468411 0.0020979196 -0.059736002 0.06571589
0.042851247 0.071835734 -0.042850245 0.07452194 0.079911284 -0.11039335 0.087595075 -0.002391927
0.02413661 0.033627704 0.03561852 -0.015936362 0.07859602 0.033777554 -0.0037943556 0.005443342
0.0617939 -0.0063641565 -0.001979418 -0.032300036 -0.092804596 0.088260405 -0.03881336 0.055118702
-0.0021857023 0.04540961 0.087857984 0.052815787 0.022710266 0.029444845 0.03788622 -0.05599114
-0.06872505 -0.06799192 0.0059334333 -0.056552485 -0.014647894 -0.05898246 -0.021184653 0.06852075
-0.021852937 -0.05959433 0.024591653 -0.07524885 -0.021509409 -0.066976555 -0.09702506 0.009211004
-0.09995653 0.051926304 0.02694282 -0.00071606785 0.042237956 -0.041756112 -0.07081575 0.03592451
-0.05659853 0.0459164 -0.077687085 -0.0069423625 -0.025553852 0.010469435 0.009993899 -0.048923254
-0.060508057 -0.025594274 0.06499179 -0.08253954 -0.048468582 -0.05149171 0.045809656 -0.0769358
-0.03536933 -0.065690964 -0.07489988 -0.053512458 -0.04437323 -0.10242501 -0.07762512 0.03701943
-0.035084743 0.08073413 0.06966712 0.010548555 -0.015531557 0.053052247 0.07008792 0.091383934
0.03453388 -0.02930376 -0.07278401 -0.056525268 -0.09457756 0.029651048 -0.010061832 -0.05303778
0.004016327 0.0639866 0.03224101 -0.026155286 0.03907136 -0.02526241 0.032822184 0.03914123
0.0290083 0.050753593 -0.08820871 0.058460817 0.00069019943 0.09792235 0.049493898 -0.09480571
-0.03518902 -0.007866122 0.019855997 -0.010314908 -0.069406606 0.014307758 0.053546928 -0.07299158
0.03482719 -0.06352696 -0.060335 -0.102293365 -0.026089247 -0.002800651 0.0014546937 -0.034251846
-0.027095038 -0.013519041 -0.03294699 -0.034183014 -0.0071296766 -0.0035750447 -0.037172843 -0.06817121
-0.02917722 0.02701597 -0.01795932 0.035082508 -0.01084419 -0.038091067 0.018048251 -0.010446981
0.013761222 0.061540015 -0.03745726 0.003792155 0.041650243 -0.035297245 0.02683414 0.03793017
0.002464245 0.051505636 0.06845186 0.05754262 0.007049284 0.022291865 0.054135762 -0.059445947
0.0015948014 -0.013431279 -0.04508404 -0.08310763 0.020028137 -0.04634759 0.008927032 0.069819905
0.08171191 0.07864 0.06184727 0.045209542 0.09777168 0.08162566 0.021657234 0.044745065
00000000: 13fc 1d3d 6fee dcbc 503a 5f3c 30bf 35bc
00000010: 2828 863c 09c3 523d f833 d2bc 065d 283d
00000020: 1395 73bd fee4 a33d 0d2b 1dbd a823 17bd
00000030: 14a5 a7bc a704 b4bd dc6d aabc 9317 d3bd
00000040: 1c7c 273c f446 fd3c f91c 643d ffc0 18bd
00000050: 2106 0dbd 0421 a33d 66d9 fbbc c2f8 9dbc
00000060: 969d 79bc 65b2 bc3b 4ee9 803d e4b3 bf3c
00000070: 2a27 6e3d 79a5 cc3c 657d d63c 6431 95bc
00000080: afd1 32bd 5069 c83d ab61 863d 1fb7 553d
00000090: db9f 863d 30c2 babd 8a3f 153d 8672 a33d
000000a0: 9029 adbb 64d4 883d a767 38bd 2c19 f73c
000000b0: 1b8f bebd 86a5 13bd 56df 01bc b182 a23d
000000c0: bf87 e4bc 087e 4e3c a523 853d 9b1c 5abc
000000d0: 7298 8fbd f84c 0bbc 407d 78bd 4213 4dbd
000000e0: ec85 c33c 6ad8 e73c be27 8ebd 1ca4 533d
000000f0: 4c8e 90bc d831 9c3d 9bd4 53bc 392d c2bc
00000100: 9c44 59bd e850 2abc f3b9 023d 6a15 65bd
00000110: 55b0 873d 3342 9d3d 5234 a2bc 8d96 0b3d
00000120: 5942 c03d 6414 13bd e7c9 98bc 596f 5d3d
00000130: 1a79 84bd 407d 093b bdad 74bd 0d96 863d
00000140: ca84 2f3d 9d1e 933d bd83 2fbd f59e 983d
00000150: 87a8 a33d e915 e2bd 0c65 b33d e0c1 1cbb
00000160: 24ba c53c 34bd 093d bae4 113d f98c 82bc
00000170: f3f6 a03d 555a 0a3d b9aa 78bb 105e b23b
00000180: 9a1b 7d3d 6a8a d0bb 20b9 01bb 0b4d 04bd
00000190: 5610 bebd dfc1 b43d c2fa 1ebd 26c4 613d
000001a0: 003e 0fbb 6dff 393d e3ee b33d 5e55 583d
000001b0: e10a ba3c 5136 f13c 952e 1b3d f756 65bd
000001c0: b8bf 8cbd 593f 8bbd 3f6d c23b 94a3 67bd
000001d0: b8fd 6fbc 9897 71bd 708b adbc 9b54 8c3d
000001e0: ee04 b3bc 2f19 74bd 6f74 c93c 121c 9abd
000001f0: 8034 b0bc 012b 89bd 13b5 c6bd c0e9 163c
00000200: 02b6 ccbd adb0 543d 30b7 dc3c 80b6 3bba
00000210: b501 2d3d 7508 2bbd d907 91bd 9425 133d
00000220: dcd3 67bd d612 3c3d 681a 9fbd c27c e3bb
00000230: 5056 d1bc fe87 2b3c 73bd 233c c063 48bd
00000240: 4cd7 77bd 15ab d1bc 6a1a 853d 7e0a a9bd
00000250: fe86 46bd f9e8 52bd e8a2 3b3d 8490 9dbd
00000260: 6edf 10bd fc88 86bd 1c65 99bd e12f 5bbd
00000270: b4c0 35bd 34c4 d1bd ebf9 9ebd b0a1 173d
00000280: 05b5 0fbd f057 a53d a3ad 8e3d d9d3 2c3c
00000290: 1278 7ebc 504d 593d 418a 8f3d 8027 bb3d
000002a0: 6673 0d3d 700e f0bc c80f 95bd 0a87 67bd
000002b0: e1b1 c1bd c1e6 f23c 62da 24bc 253e 59bd
000002c0: 659b 833b 680b 833d 260f 043d 9c43 d6bc
000002d0: 4a09 203d 1df3 cebc 8e70 063d 8e52 203d
000002e0: d0a2 ed3c 00e3 4f3d c5a6 b4bd 9c74 6f3d
000002f0: 80ee 343a 838b c83d 1dba 4a3d 7f29 c2bd
00000300: 5d22 10bd e8e0 00bc 0ba9 a23c dcff 28bc
00000310: 0d25 8ebd 166b 6a3c 0654 5b3d 9c7c 95bd
00000320: f5a6 0e3d 6c1a 82bd d521 77bd 2f7f d1bd
00000330: 1eb9 d5bc 208b 37bb 6cab be3a aa4b 0cbd
00000340: 6af6 ddbc f87e 5dbc 6cf3 06bd 7d03 0cbd
00000350: 10a0 e9bb 4c4b 6abb 8d42 18bd 599d 8bbd
00000360: 1105 efbc 9850 dd3c 6d1f 93bc adb2 0f3d
00000370: d4ab 31bc 6105 1cbd edd9 933c d029 2bbc
00000380: c076 613c 6211 7c3d c96c 19bd ce85 783b
00000390: 7299 2a3d d893 10bd 45d3 db3c aa5c 1b3d
000003a0: 2c7f 213b 93f7 523d 7d30 8c3d cfb1 6b3d
000003b0: aefd e63b 6e9d b63c 76bd 5d3d 987d 73bd
000003c0: a808 d13a de0e 5cbc 0baa 38bd 5534 aabd
000003d0: 0c12 a43c f8d6 3dbd b042 123c bdfd 8e3d
000003e0: 9358 a73d 020e a13d 9053 7d3d a42d 393d
000003f0: 853c c83d 5b2b a73d 836a b13c 9a46 373d

f.V.8.bias f4 [128]
-0.09230616 0.14929767 -0.0334346 -0.025208794 0.00087718375 0.059126686 -0.044615313 -0.09049321
-0.005267869 0.0026162341 -0.08536502 -0.07080262 -0.06331756 0.119817466 -0.10406494 -0.13437423
-0.016818604 0.057624795 0.059046 -0.09767635 -0.06319629 -0.13710557 0.08261419 -0.06367105
-0.079540715 -0.098246686 0.11513337 0.07080864 -0.042326804 -0.02883622 0.034490168 0.11015389
-0.031228827 0.12221503 0.14928135 -0.11467559 -0.107300736 0.050294213 -0.018768823 -0.08282009
0.07979917 -0.09190289 0.06515124 0.0039255535 0.0053202943 0.11997081 -0.040617567 0.018889163
0.09306686 -0.088845976 0.121517755 0.0697998 -0.108908415 -0.0661655 0.1455307 -0.11636144
0.05282179 -0.06773559 0.13963102 0.09476856 -0.045201473 0.12483874 -0.031371176 -0.056295782
0.114995115 0.11629 -0.121941335 0.113203645 -0.025874034 -0.08940959 0.06627378 -0.0050376165
0.014429805 -0.017923895 0.0753226 0.07673073 0.10416791 0.08052756 -0.067113556 0.004499686
0.017040525 -0.16537845 0.12640512 -0.07263665 0.07564054 -0.063821815 0.05314966 0.09696448
0.022688726 -0.055015028 0.05742097 -0.1393351 -0.090949416 0.065218054 0.04836446 0.06791284
0.11077887 -0.07413955 -0.08284252 0.054893427 -0.08652574 0.037537962 -0.11734261 0.09166949
0.07717075 -0.05963254 -0.023126664 0.07503558 0.10412958 0.117088094 0.07976256 0.0904005
0.09850888 0.09715235 -0.018194506 0.05361394 -0.020654675 -0.10587222 -0.091461904 -0.039632563
-0.01509573 -0.09638599 0.0787811 0.08447855 0.09533864 -0.0100091025 0.083983764 0.11729083
00000000: 030b bdbd 7de1 183e b8f2 08bd ac82 cebc
00000010: cef2 653a d32e 723d 8cbe 36bd 8154 b9bd
00000020: 179e acbb 2075 2b3b dbd3 aebd f700 91bd
00000030: a3ac 81bd dc62 f53d 0020 d5bd 6699 09be
00000040: 2bc7 89bc fa07 6c3d 38da 713d 8a0a c8bd
00000050: 0e6d 81bd 6765 0cbe a131 a93d f865 82bd
00000060: 3ee6 a2bd 8f35 c9bd 0bcb eb3d 1f04 913d
00000070: df5e 2dbd f039 ecbc 9045 0d3d 5d98 e13d
00000080: 99d3 ffbc e04b fa3d 36dd 183e 09db eabd
00000090: 7dc0 dbbd 4e01 4e3d 13c1 99bc 949d a9bd
000000a0: bf6d a33d 9537 bcbd 036e 853d eea1 803b
000000b0: dd55 ae3b 42b3 f53d 9b5e 26bd 72bd 9a3c
000000c0: d799 be3d e1f4 b5bd 4dde f83d 33f3 8e3d
000000d0: 600b dfbd c781 87bd 0006 153e e84e eebd
000000e0: a95b 583d f5b8 8abd 6ffb 0e3e 0516 c23d
000000f0: 2e25 39bd 74ab ff3d 107f 00bd 6896 66bd
00000100: 8f82 eb3d 7429 ee3d 61bc f9bd 50d7 e73d
00000110: c8f5 d3bc 601c b7bd 8cba 873d 9712 a5bb
00000120: fd6a 6c3c 22d5 92bc bc42 9a3d 0025 9d3d
00000130: fc55 d53d a2eb a43d d572 89bd 1a72 933b
00000140: 9298 8b3c f858 29be 5870 013e 86c2 94bd
00000150: 6de9 9a3d 03b5 82bd 75b3 593d 5095 c63d
00000160: b5dd b93c 7057 61bd 4032 6b3d dcad 0ebe
00000170: b043 babd 0b91 853d d019 463d e315 8b3d
00000180: 08e0 e23d 7ad6 97bd 57a9 a9bd eed7 603d
00000190: 6834 b1bd 68c1 193d 5351 f0bd 37bd bb3d
000001a0: b30b 9e3d 4041 74bd 2174 bdbc 41ac 993d
000001b0: e441 d53d e2cb ef3d 8e5a a33d e623 b93d
000001c0: 06bf c93d d0f7 c63d a50c 95bc 4a9a 5b3d
000001d0: fe33 a9bc 89d3 d8bd 6150 bbbd c155 22bd
000001e0: 1554 77bc 0566 c5bd fc57 a13d 1703 ad3d
000001f0: e840 c33d 38fd 23bc aeff ab3d 2d36 f03d
